tier_2/deep_learning/lightning_logs/version_0/checkpoints/epoch=2-step=83919.ckpt (torch, 52778 bytes, 27 tensors)

model.0.weight f4 [32, 1]
000000 d2 91 85 bf 55 52 ad bb 49 37 82 3f 79 36 7b 3f
       -1.0435126 -0.0052893558 1.0173122 0.98129994
000010 3c 26 49 3e 3a c4 05 bf bf 05 96 bf 0b f4 63 3f
       0.19643492 -0.5225254 -1.1720504 0.89044255
000020 b7 95 79 be f5 02 30 be e5 f2 52 3e e8 b6 10 3f
       -0.24373518 -0.17188628 0.2060047 0.5652909
000030 00 14 89 3f 13 07 79 bf 3c 5d c7 3b c4 a4 86 3f
       1.0709229 -0.9727642 0.0060841125 1.0519032
000040 0d 59 1f bf 8f ee 3d be 82 60 7a bf d3 cf 8c 3f
       -0.62245256 -0.18548034 -0.9780351 1.1000923
000050 81 d2 bd 3b 0b 54 b6 bf a8 ce f7 3d a6 4e 78 3f
       0.0057929163 -1.4244398 0.120999634 0.9699501
000060 74 2c 8a bf 59 e7 ec bd c2 14 ac be 29 4f 89 3f
       -1.0794816 -0.115675636 -0.33609587 1.0727283
000070 c6 64 88 3f dc d8 7b 3f 37 37 bc 3f d4 b3 4c bf
       1.0655754 0.98377776 1.470435 -0.79961896

model.0.bias f4 [32]
000000 94 fb c1 bf 32 eb e3 ba b3 c7 b9 3f 89 08 5b bf
       -1.51549 -0.0017388819 1.4514068 -0.855599
000010 16 52 68 be 1e 21 39 3e 28 3e 96 3f b7 9a 0c bf
       -0.22687563 0.1807904 1.1737719 -0.54923576
000020 c4 28 8d 3e 50 cd 8f 3e 77 d8 68 be ea 08 e2 3e
       0.27570164 0.28086329 -0.22738825 0.44147426
000030 eb c6 6b bf 10 ed ac bf 52 b0 ca 3a ed d4 2f 3f
       -0.921004 -1.3509846 0.0015463925 0.68684274
000040 e6 3a 65 3f b1 0d 53 3e b3 5b 44 3f 16 8a 4c bf
       0.89542997 0.20610692 0.7670242 -0.798982
000050 58 b0 03 3a e2 04 0d bf a9 da 4d bf a5 c2 37 3f
       0.00050235307 -0.55085576 -0.80411774 0.7178138
000060 96 cc 93 3f 18 84 5e 3f 99 58 fe 3e 28 fd 8c bf
       1.154681 0.8692031 0.4967697 -1.1014757
000070 84 37 84 bf c1 8c 62 3f c3 32 d8 3e bb a8 55 3f
       -1.0329442 0.88496023 0.42226228 0.8346059

model.2.weight f4 [32, 32]
000000 ef 0e 7c be 25 12 63 3d 87 63 e0 3b 85 ac 69 3d
       -0.24615072 0.055437226 0.006847802 0.057049293
000010 ee f6 cc bc 21 b8 2a 3e f3 72 0b 3e c0 b3 3a 3d
       -0.025020089 0.16671802 0.13618068 0.04558158
000020 b2 07 ba bd 95 6b 46 3e f3 ca fa 3d 77 28 29 3e
       -0.09083499 0.19376977 0.12245741 0.16519342
000030 45 e4 2a 3d 5a a0 92 3d 2e 7a e3 bd ec 59 64 bd
       0.0417216 0.07159491 -0.11107288 -0.05574982
000040 4e e1 a0 bd e9 23 b2 3d 9e 29 d9 bc f2 e3 30 bd
       -0.078554735 0.086982556 -0.026509102 -0.043186136
000050 1d 28 b5 bd c0 d4 6f 3d 49 6f e3 3c 80 b1 55 3d
       -0.088455416 0.058552504 0.027763026 0.05217123
000060 2b 3d f1 bd f7 21 35 3e d3 dd 02 be 74 6e 0a be
       -0.11779245 0.17688738 -0.12779932 -0.13518697
000070 11 3a 57 bd 4c c1 02 be 3c b8 1c bd 07 78 46 be
       -0.05254561 -0.1276905 -0.038261637 -0.19381724
000080 15 9f 96 3d e6 57 80 3b 11 96 8d 3b 94 42 64 3b
       0.07354561 0.0039167283 0.004320868 0.0034829723
000090 ab 9d d6 3d 7d 50 e9 bd 9e d2 95 bd 50 8f d2 bc
       0.104792915 -0.11392305 -0.07315563 -0.025703102
0000a0 ea 40 0a be 47 8d 1a 3c ed bb a5 3d 91 32 8c 3c
       -0.13501325 0.009433097 0.080924846 0.017113956
0000b0 c7 35 d1 bd 7c 49 80 bd 3c d3 9e 3c b9 39 f5 3b
       -0.10215335 -0.06264016 0.019387834 0.0074836877
0000c0 1f 34 17 be e0 52 49 be fe d7 0e bd b7 dc 36 bd
       -0.14765976 -0.1966052 -0.034873955 -0.044644084
0000d0 4f f1 a5 3b 0a 79 f9 3d b3 f7 60 bd d0 bd 91 bd
       0.0050641666 0.121812895 -0.054923724 -0.07116282
0000e0 99 73 15 be e6 0e 83 3d 8d cc 14 bc e4 d3 1c be
       -0.14594878 0.06399326 -0.009081972 -0.15315205
0000f0 5c bc 27 be 15 c6 a7 3d 97 29 ef 3c 5f 6e 1b bd
       -0.16380447 0.08192078 0.029194636 -0.037947055
000100 3f 9f e5 bd 7f 6f 05 bd 73 3a 40 3e 6e 2b 40 bd
       -0.112120144 -0.032577034 0.18772297 -0.046916418
000110 c7 d0 9a 3d a6 fe 88 3d 62 f2 a9 bd ae 12 24 bd
       0.07559352 0.06689195 -0.08298184 -0.040056877
000120 64 83 15 be 9d 01 44 3c 1f 2c 54 3e 20 c5 8d bd
       -0.14600903 0.011963275 0.20719956 -0.06922364
000130 14 1e c6 3d c8 bf b3 bd 2d 24 4e 3b a3 b5 b6 bd
       0.09673706 -0.08776814 0.0031454668 -0.08921363
000140 07 ea d6 bd 4e a5 c6 3b 6b fb 13 3e 48 54 dc 3d
       -0.10493856 0.0060621863 0.14451377 0.10758263
000150 00 d4 1f 3e c0 4f 1e bd 7e 93 0b 3e b2 49 8b bd
       0.15608215 -0.038650274 0.13630483 -0.06801166
000160 61 55 14 bd 93 cb dc 3c 77 5c a6 bd 47 8e 99 3d
       -0.036214236 0.02695254 -0.08123105 0.074978404
000170 38 84 37 be ec 93 c9 bc 8d 68 42 be ab 39 81 bd
       -0.17921531 -0.024606667 -0.18985195 -0.063098274
000180 25 72 1d 3e c7 d2 bc 3d 5d ae 83 39 fe 07 a4 3b
       0.15375574 0.0921989 0.00025116178 0.0050058356
000190 82 c4 b1 bd 9c dc 12 3c 0f 6f be 3c 59 c2 01 3e
       -0.08680059 0.00896373 0.023246316 0.12671794
0001a0 49 17 c6 3d e9 63 ea bd 0e e4 c5 bd 8a d3 07 be
       0.0967241 -0.114448376 -0.096626386 -0.1326429
0001b0 8f 84 44 bd a0 d3 34 3e fd 2c 33 bd 8c 57 dc 3d
       -0.04797798 0.17658854 -0.043744076 0.10758886
0001c0 14 5e c1 bd 72 15 6a 3e 67 69 5a bd 16 8f f5 3d
       -0.09441772 0.22859743 -0.053323176 0.11990182
0001d0 31 98 fb 3d 76 77 17 be 85 3a c1 bd c9 00 f4 3d
       0.122848876 -0.14791664 -0.0943499 0.11914212
0001e0 85 0c 3b 3e a6 26 68 3d 3c 3d ad 3c 53 6e 77 bd
       0.18266495 0.056677483 0.021147363 -0.060407948
0001f0 8b db 30 bd ec c4 bb bc ec 2a d3 3c 76 f8 cb 3c
       -0.043178122 -0.022921048 0.025777303 0.024898749
000200 29 92 a4 3c a4 47 74 3d 0e 38 45 3d 95 06 9a bd
       0.020089226 0.059638634 0.04814916 -0.07520787
000210 58 c5 06 3e ae ba 4a bd 13 6f 7e 3d 02 d3 ef bb
       0.13161218 -0.049494438 0.062117647 -0.0073188553
000220 ae 10 cd 3d fb 34 28 3e b9 85 5e bd c2 65 ec 3d
       0.10012947 0.1642646 -0.054326747 0.11542846
000230 cf 40 dd 3d fd 42 e6 bd 82 ea 9b bc 9c 04 04 be
       0.10803377 -0.11243246 -0.01903272 -0.12892383
000240 49 7a 35 be b9 4b 00 3e f6 3f 98 3d 0b ea 21 be
       -0.1772243 0.12528886 0.074340746 -0.15811937
000250 36 ee 02 be 0f df db bc 41 a9 2f 3d 0a 76 c8 3d
       -0.12786183 -0.026839761 0.042886022 0.09788139
000260 b4 82 ea 3d a5 6b 48 bd 24 dc 11 bc e6 cd f9 3d
       0.11450711 -0.048930783 -0.008902583 0.12197475
000270 2d 61 0d 3e 96 42 e1 bd dd d3 47 bd 99 0a 66 bd
       0.13806601 -0.109990284 -0.048786033 -0.05616245
000280 cc 25 3e 3e 31 3f 6e 3d 8e eb 0e be 7e dc 0c 3e
       0.18569106 0.058165733 -0.13957044 0.13755986
000290 c2 0e 88 be 91 3d e1 3c cb f8 13 3d 73 94 19 3c
       -0.2657376 0.027495177 0.03612594 0.009373772
0002a0 c6 75 33 3e 1a c0 b8 3d 90 94 60 3d 11 5f 49 be
       0.17525396 0.090210155 0.05482918 -0.19665171
0002b0 ae 2c e2 bd 0c 06 3b 3d d0 3c ae bd 47 67 7c 3d
       -0.11043678 0.045660064 -0.08507693 0.06162193
0002c0 db fd 6e bd 12 dc b4 3c f2 6c 81 bd 87 59 54 bd
       -0.058347564 0.022077594 -0.06319608 -0.051843192
0002d0 23 3f 9b bd 4f b1 3f be 29 21 5e 3d bf f2 08 3e
       -0.07580402 -0.18719982 0.054230843 0.1337385
0002e0 b1 b8 cf bd 84 e7 84 bd 56 1f 05 3d 6e 16 15 3d
       -0.10142649 -0.064894706 0.032500587 0.036398344
0002f0 0a 12 31 bd 69 cb 51 3e bc 3f a3 bd c0 42 32 3e
       -0.043230094 0.20487751 -0.07971141 0.17408276
000300 49 85 ac be be 43 23 3c 51 c2 2c 3d 3b f4 14 3e
       -0.33695439 0.009964881 0.042177502 0.14546292
000310 b1 00 60 3a 6c 8f 20 be 9c eb c5 3c 15 42 f8 bd
       0.0008545025 -0.15679711 0.024160199 -0.12121979
000320 d9 e9 8e 3d 45 14 80 3d 69 1e 1d 3e 89 bf 2c 3e
       0.06978197 0.06253866 0.15343632 0.1686994
000330 63 c6 24 3e 38 71 a6 bd ad 4e fb 3c 31 20 2f be
       0.16091304 -0.081270635 0.030677164 -0.17102124
000340 fe eb ea bc 01 12 a4 3d 20 42 ca bd 41 26 8b 3b
       -0.028676983 0.080112465 -0.098758936 0.0042465036
000350 ae d3 60 3d a5 d8 3a 3e af d9 87 bd 46 b6 cb bd
       0.054889373 0.18246706 -0.06633317 -0.09946875
000360 ac 81 34 3e fe 45 fe bd 10 53 ac bd 0e 27 04 3e
       0.17627591 -0.12415694 -0.084142804 0.12905523
000370 29 b9 8c 3c 71 6a 9f 3d c5 94 29 be 8e 69 32 3e
       0.017178135 0.07783974 -0.16560657 0.17423078
000380 ba 93 83 3f 7d 0d 12 bd f1 8d 8c bf 85 1c a4 3d
       1.0279458 -0.035657395 -1.0980817 0.08013252
000390 90 4f 8e be 45 ab 36 3e dd 26 94 be eb b0 2b 3d
       -0.27795076 0.17838772 -0.289359 0.04191677
0003a0 b1 57 4b 3e da 71 55 3e 31 a8 d6 be d5 ff 83 bf
       0.1985767 0.20844212 -0.41925195 -1.0312449
0003b0 41 1f 4c 3e b8 84 b3 3f 64 fd eb 3c c7 9d 99 bf
       0.19933797 1.4024878 0.02880735 -1.2001275
0003c0 5e 27 09 3e 64 51 49 3e 58 5c 9e 3d 4c 94 0d be
       0.13393924 0.19659954 0.07732457 -0.13826102
0003d0 9c f7 b2 3c ce 03 69 3f d5 e0 5f be 0a 2e 92 bf
       0.021846585 0.9102143 -0.2186311 -1.14203
0003e0 3c ff 5b be b9 6b 86 3e 13 0a 4d 3d f6 55 67 3e
       -0.21484083 0.2625406 0.050058436 0.22591385
0003f0 f2 ff 18 3e 03 bb 0d c0 de 7a 11 bf cb 30 9b 3b
       0.14941385 -2.2145393 -0.56828105 0.004736041

model.2.bias f4 [32]
000000 5f fc af bd 5d 63 c5 3d 39 40 09 3e 75 dc 9d bd
       -0.08593058 0.09638093 0.13403405 -0.077080645
000010 84 97 17 3d 6c 73 29 3d 14 90 9c bd 21 27 29 3e
       0.03700973 0.04136984 -0.07644668 0.16518833
000020 75 c4 be be 69 9e 7d 3c fd e8 ad 3c 58 3b a6 bd
       -0.3725926 0.015479662 0.021229262 -0.08116788
000030 e4 af d9 bc a6 1c 31 be 58 95 10 bd 64 c5 91 3d
       -0.026573129 -0.17296085 -0.035298675 0.071177274
000040 8b 53 0d 3e 03 e5 0a bd ad 91 15 3f 9b 5a 9c ba
       0.138014 -0.03390981 0.5842541 -0.0011928858
000050 fb 2d af be bb f8 82 3e c6 ac b8 be 9b 33 0a 3e
       -0.34214768 0.2558039 -0.36069316 0.13496248
000060 95 97 a6 3d 6e 97 a9 be 45 0c a9 bd b3 74 82 3e
       0.08134381 -0.33123344 -0.08254293 0.2547966
000070 a8 e9 ba bd 28 7f 04 3e 48 31 e3 3e 37 06 fe bd
       -0.09126598 0.12939131 0.44373536 -0.12403529

model.4.weight f4 [32, 32]
000000 af 78 6c bd 0b 0e 45 bc 80 89 06 bd 23 ca c8 3d
       -0.05773228 -0.012027274 -0.032845974 0.098041795
000010 ac fc 5b 3c 4e b8 06 3b 9a f3 a7 bd 45 1f bb 3d
       0.013426941 0.0020556631 -0.0820076 0.091368236
000020 0c 3c ab bd 1f b3 9e bc 06 80 0f 3c 4a 10 07 bc
       -0.083610624 -0.019372521 0.0087585505 -0.00824363
000030 83 30 e2 3c 5f c6 87 3d ee 89 07 bd fe db d0 3c
       0.027611023 0.06629633 -0.033090524 0.025495525
000040 fe 2a bf bc e2 80 89 bd f9 d5 a3 bd 86 db 43 3c
       -0.02333593 -0.067140356 -0.079997964 0.011954194
000050 e8 94 f7 bb 5b ef 60 bd 73 70 e3 bc 98 9c 90 3d
       -0.007555593 -0.054915767 -0.02776358 0.07061118
000060 eb a5 19 3b f1 cf 1a 3d b2 97 26 3c 64 eb 4c bd
       0.0023444842 0.037795965 0.010168003 -0.050029173
000070 69 71 5c 3c 88 20 b9 bc 47 14 41 3c 95 dc cc bd
       0.013454773 -0.02259852 0.01178462 -0.1000301
000080 0e 8a b5 bd 56 a1 67 3d 15 4e 38 be da 4c 1a 3e
       -0.088642225 0.056550346 -0.17998536 0.15068379
000090 8b 51 04 bd d8 9f 94 bd 15 65 6c bd 6e 98 09 bf
       -0.032304328 -0.0725705 -0.057713587 -0.53748214
0000a0 3a 46 b4 bd 39 1d 27 be 04 87 c6 bd 34 dc 01 3d
       -0.08802457 -0.16319741 -0.09693721 0.031704143
0000b0 c4 6d 73 3d f4 06 8f 3b ab 38 60 3e 28 84 90 3e
       0.059430853 0.0043648425 0.21896617 0.28225827
0000c0 5e 5a 62 bd 0e eb e8 3d dc 88 81 3e 5e 6d f7 3b
       -0.055261962 0.11372958 0.25299728 0.0075508794
0000d0 a8 89 c2 3d fd a0 ac 3e 2e 06 a7 bd 34 29 80 bc
       0.09498912 0.33716574 -0.081554756 -0.015644647
0000e0 ef 8d 48 bc af 90 e2 bd 7c 7b 86 bd 6c a2 b7 bd
       -0.012240871 -0.110627525 -0.065665215 -0.089665264
0000f0 3d a0 32 3d 52 49 a9 3e 7b ce 49 3e b5 21 19 3f
       0.043609846 0.3306375 0.19707672 0.5981706
000100 00 fc a9 bc d4 28 b2 3b 2e 90 b8 3d e5 88 14 3c
       -0.020750046 0.005436996 0.09011875 0.009065841
000110 b6 44 bc 3d 5c e7 d7 bd 50 e3 34 be b4 ed e8 be
       0.09192793 -0.10542175 -0.17664838 -0.45493853
000120 83 27 7c 3d df ae 9a 3d c0 f8 8b 3d fa 4e 90 bd
       0.06156112 0.07552885 0.06834555 -0.070463136
000130 c8 1a 0c bd c5 b8 51 be 96 b1 8a 3e e9 ff 6f 3e
       -0.034205228 -0.2048064 0.27088612 0.23437466
000140 f2 4b 15 be 52 51 0e be d0 e5 34 ba fe bd 3c bc
       -0.14579752 -0.13898209 -0.00069007 -0.011519907
000150 41 72 ac b9 5f d3 9e 3e dc 20 ed bd fc 52 83 bd
       -0.00032891522 0.31020638 -0.11578533 -0.064123124
000160 f9 17 9e bd e7 e6 87 3d 25 07 04 bd 68 04 bd bd
       -0.07719416 0.06635838 -0.032233376 -0.09229356
000170 c1 a3 54 3c c8 1c 24 3e 2c ab c0 bc 75 40 04 3f
       0.012978495 0.16026604 -0.023519121 0.51660854
000180 b3 be b4 3c f9 c8 3f bc 8e 62 bd bc 9d 1b 6b bc
       0.022063589 -0.01170563 -0.023118284 -0.014349845
000190 4b d0 41 3d 60 01 53 3d b4 d1 fc 3c 10 46 b6 3c
       0.047317784 0.051514983 0.030861713 0.022250205
0001a0 a7 e7 c3 bc c3 9f 1d bd 01 c4 cc bd 2f 03 65 bd
       -0.023914171 -0.03848244 -0.09998322 -0.05591124
0001b0 6a 2d a8 bb 54 66 a4 3c 0e f5 e5 3c e0 bd 38 bd
       -0.005132367 0.020068325 0.028070953 -0.045102954
0001c0 1d 5d 88 3d b2 93 f4 3c 1c 41 2a bd 0e 7b cd ba
       0.06658385 0.029855583 -0.041566 -0.0015676932
0001d0 7c 0d a0 3c f6 7c c3 3c 66 b9 99 bb 89 80 72 bd
       0.01953768 0.023863297 -0.0046912907 -0.059204612
0001e0 13 6e c6 bb f2 cb 1f be 3f db 9c b9 fd 3b 10 3e
       -0.0060556023 -0.15605143 -0.0002991799 0.14085384
0001f0 e0 46 a3 3c ab 85 15 bd c2 4d 29 be a1 23 f8 ba
       0.019931257 -0.03650443 -0.16533569 -0.0018931517
000200 e0 71 dd bd 39 26 ab bc ae 13 1b 3c 5c 68 73 bd
       -0.108127356 -0.02089225 0.009465141 -0.059425697
000210 cb 7b 8e bd 8a 92 26 3d 93 1f 34 be 36 1a f3 3e
       -0.069572054 0.040667094 -0.1759017 0.47480935
000220 0c 08 0d 3e 7a 91 b5 3c 5b cd 0f ba 7a d0 9d 3d
       0.13772601 0.022164095 -0.00054856174 0.077057794
000230 89 76 09 3e 53 eb 78 bd 48 ed d2 bd ff 6a 90 be
       0.13424124 -0.060771298 -0.10299164 -0.28206632
000240 ef 07 ca bd 0a 27 8a bc 01 2b 48 be 1f 41 cc bd
       -0.098647945 -0.016864318 -0.19547655 -0.09973358
000250 19 97 93 3d a0 d5 ef bd 67 ad 8c bd 3d 99 97 bd
       0.07206554 -0.117106676 -0.06869011 -0.07402275
000260 b5 34 6e 3d 2d 40 67 be a8 19 96 bb b3 f6 9a 3d
       0.058155734 -0.22583075 -0.004580695 0.075665854
000270 71 e0 28 3e 2b 8f 5b be 38 04 57 3c 82 d5 00 bf
       0.16491868 -0.21441333 0.013123564 -0.5032579
000280 59 50 59 3c ee b6 51 3d b0 73 a3 3d bd 45 31 3d
       0.013263785 0.051199846 0.0798105 0.0432794
000290 ad c7 a5 bd 81 e0 3b 3d 2c 2a 6f 3d 25 15 45 be
       -0.08094726 0.0458684 0.058389828 -0.19246347
0002a0 6f 16 51 3b dd a1 01 3e ef 81 2e 3d 46 56 6c 3d
       0.003190424 0.12659402 0.042604383 0.057699464
0002b0 78 fa 19 be 32 da 10 3b 50 a5 41 3e e5 5e 31 3d
       -0.15036952 0.002210271 0.18910718 0.04330339
0002c0 cd ed 11 3e 72 bb 1b 3e 80 77 77 3d 60 34 7b bc
       0.1425087 0.15208223 0.0604167 -0.015332311
0002d0 0d 30 e3 3c 2a bb 3a 3e 13 33 56 bd f9 1f c0 bd
       0.027732873 0.1823546 -0.052294802 -0.09381098
0002e0 f0 98 bb 3c e6 01 84 3c ec 01 52 3c 24 2d 6a 3e
       0.022900075 0.016114186 0.012817841 0.22868782
0002f0 80 94 ab 3d 10 3b f1 bb a9 d4 1a bd c6 84 60 3e
       0.083779335 -0.007361777 -0.037800465 0.21925649
000300 cd c7 d5 3c 4f aa 0b 3e ce a4 2f 3d c6 20 80 39
       0.026096249 0.13639186 0.04288178 0.0002443848
000310 69 c2 f4 bc 49 47 f9 bb ce 26 2c 3d d1 55 e1 3d
       -0.029877858 -0.007607375 0.042029195 0.11002696
000320 2c 5a 37 bd 37 53 a0 bc b6 9b 7d 3b 5c 44 b7 bb
       -0.04476373 -0.01957093 0.0038697547 -0.005592866
000330 d1 1a ae bd ef f3 b2 3c 2f 27 71 bd 23 01 92 bc
       -0.085012086 0.021844832 -0.05887526 -0.017822808
000340 6d fd da 3c 93 7a 66 3d 75 3a 5d bd b0 dd cf bc
       0.026732171 0.05626924 -0.054010827 -0.025374264
000350 9b 7b 06 3d 9e 3b 1e bd 53 80 6e bd c0 58 6e bc
       0.032832723 -0.038631074 -0.05822785 -0.014547527
000360 69 c5 64 b9 88 51 01 bd 87 ff c7 bc 9b d5 00 3d
       -0.00021817315 -0.031571895 -0.024413837 0.03145371
000370 a5 5d 49 bd 3f 32 38 bc 98 b6 25 bd 9e a1 e9 bd
       -0.049161572 -0.011242448 -0.040457338 -0.11407779
000380 1e 34 4a bd 64 1a ad 3d b3 d7 3c bd f1 ed 09 3d
       -0.04936611 0.08452299 -0.046104144 0.033674184
000390 11 f1 86 bc c0 07 eb bd 97 e4 05 3d 51 84 f8 3e
       -0.016472371 -0.114760876 0.032688703 0.4853845
0003a0 67 ae b3 3d b0 fb 3f 3c 1d 3e 19 3d 35 7a c4 3d
       0.08773499 0.011717722 0.03741275 0.09593622
0003b0 cf 91 51 bc 59 75 d4 3c 35 09 89 be 27 68 3a be
       -0.012791111 0.025934862 -0.26764837 -0.18203793
0003c0 ac 80 91 bc f8 b7 76 bd 3f 04 f2 3c 33 93 aa 3c
       -0.01776155 -0.06023404 0.02954304 0.020822143
0003d0 fc 52 97 bd 2d 67 71 be c0 27 cb 3d 57 97 26 bd
       -0.07388875 -0.23574515 0.09919691 -0.040671673
0003e0 a5 35 8d bd c5 08 28 be 02 cf b9 bd 30 98 53 3e
       -0.068949975 -0.16409595 -0.09072687 0.20663524
0003f0 2c 0c 66 3d a2 d7 05 bf 3a 42 99 bd 54 c4 06 bf
       0.05616395 -0.52282155 -0.07483335 -0.5264332

model.4.bias f4 [32]
000000 c5 34 44 bd 2f eb 6f be c2 a0 81 be 6d be 60 3c
       -0.047901887 -0.23429559 -0.2531796 0.013717276
000010 6f e4 44 3e 33 f9 1c bd d3 14 6a bd 7b 0d 74 3e
       0.19227766 -0.038323592 -0.057148766 0.23833267
000020 8f 4c 19 3e 87 de 84 3e fb 11 0d bd 82 b0 0e be
       0.14970611 0.25951025 -0.034440976 -0.1393452
000030 c7 43 17 bf 4d 51 9b bc 5b 11 a1 3d f9 8c c4 3e
       -0.59087795 -0.018959666 0.078646384 0.38388804
000040 1f 3f 9d 3d 8c 3a 98 3e 3b 3a 7c 3c 8e 29 3f bd
       0.07678055 0.29732168 0.015394743 -0.04667049
000050 e3 f9 3a 3e d5 c3 32 bd 17 d3 46 bd 8e 40 cc bd
       0.18259387 -0.04364379 -0.048541155 -0.0997325
000060 e9 e9 92 bd 2b b9 dc bd ff 2c a3 3d b5 4b 0f be
       -0.07173521 -0.107775055 0.07967567 -0.13993724
000070 ed 96 ba 3b 32 4f d9 bc ec cf 24 bd 99 73 b1 ba
       0.0056942613 -0.026527021 -0.040237352 -0.0013538479

model.6.weight f4 [32, 32]
000000 b4 ed dc 3c 7b 96 dd 3c 33 f8 e6 bc 05 36 29 bd
       0.026968814 0.027049294 -0.028194522 -0.041311283
000010 80 bd a1 bc b4 b8 8c 3d 36 3b 3d bd 32 e1 b2 3d
       -0.019743681 0.06871167 -0.046199046 0.08734359
000020 27 04 08 bd 22 97 f8 bc 41 47 93 bc ba a3 55 3c
       -0.033207085 -0.030345503 -0.017978312 0.013039524
000030 31 fa 23 bd a6 30 38 bc d7 1f 49 bd 36 a3 b6 3b
       -0.040033523 -0.011242067 -0.04910263 0.0055736555
000040 4a 40 1b 3c 5e f7 be bc 3c f7 8c 3b ad 91 4a 3d
       0.009475777 -0.023311313 0.0043019336 0.049455334
000050 df 93 a0 3c 03 79 f2 bd fc fb 98 3d bc 3e 8b bc
       0.01960176 -0.118394874 0.07469937 -0.016997688
000060 d3 9a dd bc df 53 de 3b da 6d 88 3c a6 fc a0 3d
       -0.027051365 0.0067849006 0.016653944 0.07860689
000070 8a 7c 62 3d 60 54 92 bd 89 46 03 bd 14 f3 8d bc
       0.05529455 -0.071449995 -0.03204969 -0.017327823
000080 f2 d9 ce 3b 7a 71 4f bd 55 19 99 bd 5a e5 b6 bc
       0.006312602 -0.05064533 -0.07475535 -0.02232616
000090 93 2a bc bc b2 06 db bc 0b 7e 35 bc a4 55 b6 b9
       -0.02296952 -0.026736591 -0.011077414 -0.00034777552
0000a0 b7 e9 11 bd b9 fb 69 3c 3a 0d 02 bd b3 11 e1 3b
       -0.03562328 0.014281207 -0.031750895 0.006868565
0000b0 30 b5 b5 bc 18 bb 17 bd e6 4c 33 bd 67 d0 6b bc
       -0.022181123 -0.03704366 -0.043774508 -0.014392949
0000c0 f6 51 ac 3d 47 f9 b7 bc b7 9f a5 bc 46 01 ef 3c
       0.0841407 -0.022457732 -0.02021776 0.029175412
0000d0 c8 a4 33 bd 27 fe 80 bd b3 fb 25 bc ee 9d e1 3c
       -0.04385832 -0.06298476 -0.010130811 0.027541127
0000e0 b3 b3 db bb 96 4c 92 3b ce d1 b2 3d 72 5f 8c 3d
       -0.0067047714 0.004464696 0.08731423 0.06854142
0000f0 c5 03 8e 3b 15 e8 12 3d 9f b1 70 bc 1f 7e 2e bb
       0.0043339455 0.035865862 -0.014690786 -0.0026625467
000100 d2 9f 36 3d 0f 85 89 be 1b 83 23 be 8b 4e aa bd
       0.04458601 -0.26859328 -0.15967982 -0.08315762
000110 7e a4 7e 3d 87 4d 95 3d 32 dd 82 bd c7 e9 51 3e
       0.06216859 0.07290178 -0.06389846 0.20499335
000120 6e 0b ee 3b d2 d1 e0 3e 86 16 b1 3d e9 01 9b 3e
       0.007264546 0.4391008 0.08646874 0.30274895
000130 46 74 7e be d4 5d d6 3d b6 27 b5 bb f3 63 04 3f
       -0.24849042 0.10467115 -0.0055284156 0.5171501
000140 86 b7 30 3d e2 f5 9d 3e 9a 01 03 3e b8 60 23 3d
       0.04314377 0.30851656 0.1279358 0.03988716
000150 5d ae 7b 3d ee fc 40 bd 38 94 42 bd bb 91 ea 3c
       0.061445583 -0.047116213 -0.047504634 0.028633943
000160 25 16 3d bd 19 11 7b bd f5 3c ff bd 54 e6 e3 3b
       -0.046163697 -0.061295602 -0.124627985 0.0069549475
000170 3a df f7 bd 00 37 9d 3c 1b 35 ef bd a8 90 2c be
       -0.12103124 0.019191265 -0.11680051 -0.16852057
000180 48 ac 89 3d 5d fc 8b bc 78 c6 b1 3e b7 f8 17 3e
       0.06722313 -0.01708811 0.34721732 0.14840971
000190 4b c3 34 3d 76 83 fb 3d 50 8d 4d 3e 70 6a 7e be
       0.04413156 0.122809336 0.20073438 -0.2484529
0001a0 3b ab e3 3d 59 65 8e 3e 1f 33 00 bc ac 64 94 3e
       0.11116644 0.27811697 -0.007824688 0.28983057
0001b0 04 7a 2d bd 07 13 cf 3d c6 2c 06 be e4 9d b9 3c
       -0.04235269 0.10111051 -0.13103017 0.022658296
0001c0 14 ef 27 bd ef 5a be bd 37 4d 38 bd 3e 43 ce 3c
       -0.040999487 -0.09294688 -0.044995513 0.025178548
0001d0 53 1e 54 3d 42 35 c8 3c 79 c5 2b 3e d7 84 53 3e
       0.051786732 0.024439458 0.16774549 0.20656143
0001e0 58 e6 86 be 99 26 25 3e d0 51 6a be 63 4e 34 3e
       -0.26347613 0.16128005 -0.22882771 0.17608027
0001f0 60 1a 2d 3e b2 5f 38 3e 47 cd 5a bd 72 0e e7 bd
       0.16904593 0.18005255 -0.053418424 -0.11282052
000200 dc 46 63 bc d6 dd 39 bd 4b f5 85 bb 0e 3a 50 bd
       -0.013871875 -0.045377575 -0.004088079 -0.050836615
000210 80 04 37 bc 61 d7 58 3c 1c 52 08 3d c3 91 75 bd
       -0.0111705065 0.013234944 0.03328143 -0.059953462
000220 c7 79 47 bb a6 16 e6 bb 5f b5 10 bd 9b ae e8 bc
       -0.0030437575 -0.007021743 -0.03532922 -0.02840357
000230 e1 b1 cb 3c b6 00 d7 3c b5 24 18 3d 52 9f df bc
       0.024865093 0.026245456 0.03714438 -0.02729765
000240 d8 cf 7d bc ef 80 08 3d 1e f5 91 bd e1 3a a6 3c
       -0.015491448 0.033326086 -0.071268305 0.020291748
000250 f3 2b 52 3d cb 8a 1f 3d 7c 20 94 3c 7a 08 da 3b
       0.051311444 0.038950723 0.018081896 0.0066538425
000260 1a 75 16 3d ce 4e 28 bd 8c e4 8f 3c a9 be 76 bd
       0.03673277 -0.04109078 0.017565034 -0.06024042
000270 ee f8 a9 bc 4d 80 43 3d 88 6e 0d bc 80 e4 13 bd
       -0.020748582 0.04772978 -0.00863231 -0.036106586
000280 0a d6 7f 3a c6 94 c5 bc c7 61 a3 3d 43 bf f7 bc
       0.00097593723 -0.024118792 0.07977634 -0.030242568
000290 7d 7e ec 3d 45 9b 10 be c5 8b ac bd 4a d7 19 bc
       0.11547563 -0.1412173 -0.084250964 -0.009389708
0002a0 02 3c b4 bc 3e 2a 82 bd 6a 8c 71 bd f2 88 f0 3a
       -0.02200127 -0.06355713 -0.0589718 0.001835136
0002b0 b2 9a 65 bd 05 33 32 bd 24 fd f7 3d f1 77 32 3c
       -0.056055732 -0.043505687 0.121088296 0.010892854
0002c0 5d b2 e1 bb 36 81 00 3c 9b 68 7c bd fa d8 ac bc
       -0.0068877176 0.007843306 -0.061623197 -0.021099556
0002d0 81 19 f1 bd a6 d4 c5 3b 1f ee 21 bd b7 60 00 bc
       -0.117724426 0.0060373126 -0.03953373 -0.007835559
0002e0 64 f3 87 3d bf 95 c0 bc 39 46 17 3d 57 03 d2 3c
       0.0663822 -0.023508905 0.036932204 0.025636358
0002f0 e5 0c 0b 3c 02 a1 da bc e6 fc 7e 3d 0d 12 30 3c
       0.008486961 -0.026688103 0.0622529 0.010746491
000300 80 6a af bd fe 33 86 3c 33 d7 03 be b1 bd 8c bc
       -0.08565235 0.016382214 -0.1287506 -0.017180296
000310 61 66 c4 3c 8f 1c 23 be fb eb f1 bc ca a3 8e 3e
       0.0239746 -0.15928863 -0.02953147 0.27859336
000320 8f 9a c0 bd f4 0a b3 bd 05 0b 40 3d 87 4b 38 be
       -0.0940448 -0.087423235 0.04688551 -0.17997561
000330 de be b8 3d fd 67 02 be a2 50 68 bd a4 77 16 be
       0.0902078 -0.12734981 -0.056717522 -0.14694077
000340 1f bc f8 3d ca f9 00 3d 4f 2c 00 3d f0 ec 2d 39
       0.12145256 0.031488217 0.031292256 0.00016586832
000350 43 85 aa bb 42 09 d1 3c 22 1d 88 3d 54 fe 22 3d
       -0.0052038743 0.02551711 0.06646182 0.039793327
000360 6f d1 6b 3d e2 f8 d6 3d d1 91 85 bc ec 12 a5 bd
       0.05757278 0.104966894 -0.016304882 -0.0806025
000370 1a 89 14 bd b2 ee d7 3d 2c d5 f6 bd 8c d1 21 3d
       -0.036263563 0.105435744 -0.12052378 0.03950648
000380 9a 52 24 3d af d7 1e 3c 9d 5f 13 bd 8f 3b d0 bc
       0.040117837 0.009694978 -0.035979856 -0.025419025
000390 37 3c f1 bc df 71 92 bd 73 7c 85 3d 8b 78 62 bd
       -0.029447658 -0.071506254 0.065178774 -0.05529074
0003a0 0a 42 b4 3d 16 61 06 3d 91 25 03 bd 78 2a 0c 3b
       0.088016585 0.032807432 -0.032018248 0.0021387618
0003b0 8b 10 c4 3c 94 07 6d 3d 86 e2 1e 3c 1d 9e 24 bb
       0.02393367 0.057868555 0.009697562 -0.0025118657
0003c0 61 65 a7 bd 23 35 b0 bb 3b a0 2c bd af f7 02 3c
       -0.08173633 -0.005377428 -0.042144995 0.007993623
0003d0 73 ba 4d bd de b4 55 3d ec 77 e8 bc 2d 60 04 3c
       -0.05022664 0.05217444 -0.028377496 0.008079571
0003e0 4a 1b ba 3c f9 75 fa bc fc eb 61 3d 69 92 9e bd
       0.02271809 -0.030573832 0.055156693 -0.07742769
0003f0 6c 55 86 bc bd 41 d2 bc b6 ad 11 3d 46 36 0f bd
       -0.016398154 -0.025666112 0.035566054 -0.03496387

model.6.bias f4 [32]
000000 26 c1 fe 3b 44 2f ff 39 02 fd a7 bc 74 8f 58 3e
       0.00777449 0.00048672606 -0.020506386 0.21148473
000010 fd a4 39 3b 68 85 7d bd fa 9e 50 bc ce dc 05 bd
       0.00283271 -0.061894804 -0.0127332155 -0.03268128
000020 d6 c9 b4 bc 8d ff 4b 3a aa 5e e9 bb f7 b2 27 be
       -0.0220689 0.00077819155 -0.0071218805 -0.16376863
000030 7f 39 8d bc 67 9e 36 bd 57 62 ca 3d a6 e0 4f bd
       -0.01723933 -0.044584658 0.09882038 -0.05075135
000040 b1 ef 09 3d 45 01 9a bd b7 a3 b1 3c a1 77 b4 3c
       0.033675853 -0.075197734 0.02168451 0.0220297
000050 0c 91 f5 3c 7a f2 80 3d 3c 07 10 3c a0 3e 69 bc
       0.02997639 0.06296249 0.008790787 -0.014236122
000060 e1 89 99 bd 10 55 d2 ba 77 9d 57 bd e3 17 ae bd
       -0.074970014 -0.0016047079 -0.052640405 -0.0850065
000070 6b a3 bb 3d 7a d8 ba bd ae 70 00 bc 7f 3b 9e bd
       0.09162029 -0.09123321 -0.007839365 -0.07726192

model.8.weight f4 [1, 32]
000000 ce 8b 8e bb 5e 75 bb 3a f4 b7 31 3e 51 b7 04 3c
       -0.004350162 0.0014301946 0.17355329 0.008100347
000010 fa 61 09 3a ff db 50 bb 6a 84 6a bb 78 e5 b8 3b
       0.0005240735 -0.003186941 -0.0035784491 0.005642589
000020 26 25 1e bb 28 56 a1 bb 6b 41 99 38 c7 3f 85 be
       -0.002413103 -0.0049236007 7.3077936e-05 -0.2602522
000030 51 ab 86 bb 26 d8 c8 ba 20 ee c7 ba 92 1a 17 37
       -0.004109778 -0.0015323206 -0.0015253462 9.006488e-06
000040 85 18 b3 ba 44 00 c9 bb 50 37 72 bb 8d b0 05 bb
       -0.0013663924 -0.006134065 -0.0036959238 -0.0020399422
000050 e7 94 8a 3b 70 ad 8d bb 3a 39 10 ba 4f 0d 93 ba
       0.0042291763 -0.004323654 -0.00055016915 -0.0011219176
000060 3c 89 66 3a 4b cb c8 bb 55 5c 4f 3b eb b8 01 bb
       0.0008794253 -0.00612775 0.0031640728 -0.0019794058
000070 e4 d6 53 3e 9c e7 0e 3b aa 11 c0 3b ac 21 b7 3a
       0.20687443 0.002180553 0.0058614807 0.0013971827

exp_avg f4 [32, 1]
000000 97 7c 32 3d 6b 9a 7c ba 07 f6 12 bd 75 c1 c7 3b
       0.04357585 -0.0009636047 -0.03587916 0.00609606
000010 f4 22 20 bc fe 28 f3 39 db ab 68 bc 7f 1a 9e 3b
       -0.0097739585 0.00046379113 -0.01420113 0.004824936
000020 ed b3 fd 3b 94 95 ea 3b e7 69 07 bc 85 f0 8c bc
       0.007742396 0.0071589444 -0.008264995 -0.017204532
000030 dc 3a 95 3b 19 2e 05 3d ce d9 84 3a 9e 6e 16 bc
       0.0045541357 0.032514665 0.0010135712 -0.009181647
000040 da 16 ce bc b6 c8 ec 3b 77 a2 51 bb d9 c8 0a 3b
       -0.02515738 0.007226075 -0.0031987706 0.0021176843
000050 11 ca 39 3a 9b 52 09 3c f8 59 19 bc 71 e5 24 bc
       0.00070873 0.008381511 -0.009359829 -0.010064469
000060 d5 bd b0 bc 3e 8b 13 3c ed 8e a3 bb c7 54 9d 3c
       -0.021574894 0.009005366 -0.0049914033 0.019205464
000070 5a 90 2b 3c 22 a2 67 bc c2 98 ed bb b6 38 a5 bc
       0.010471428 -0.014137777 -0.007250876 -0.020168643

exp_avg_sq f4 [32, 1]
000000 4d 27 c6 3c 99 c8 c2 36 56 e6 83 3c e8 86 82 3b
       0.024188662 5.805003e-06 0.016101044 0.0039833672
000010 02 89 07 3b 19 06 11 39 59 13 0d 3c 85 bc ed 39
       0.0020681028 0.00013830549 0.00861057 0.0004534462
000020 ed 41 d5 3a 0c 91 91 3a 81 15 9f 3a 31 b8 c8 3a
       0.0016270258 0.0011105849 0.0012137146 0.0015313682
000030 56 eb 88 3b 3d b7 51 3c 94 1b a3 36 e4 88 11 3a
       0.004178445 0.012800035 4.860989e-06 0.00055517093
000040 ce e3 77 3b 32 50 15 3a 59 6b 77 3a 1a d7 86 3a
       0.003782499 0.0005695849 0.00094382983 0.0010287494
000050 41 bb 92 36 06 ec a7 39 56 6e 65 3a 37 71 1b 3a
       4.3729383e-06 0.00032028573 0.0008752098 0.0005929651
000060 b4 67 19 3c d3 a3 27 3a 8e 63 60 3a 58 59 31 3c
       0.009363104 0.0006394956 0.00085597567 0.010824524
000070 24 3e 91 3b 1e fb 0d 3b d3 52 66 39 30 53 f7 3b
       0.0044324566 0.002166457 0.00021965364 0.0075477585

exp_avg f4 [32]
000000 9d 10 d9 bc 19 82 76 3a ec 34 b7 3c 21 0a 8c 3a
       -0.02649718 0.00094035413 0.022364102 0.0010684171
000010 e6 2a 58 3c d9 7e e0 ba 39 5a 13 bc f5 75 11 3a
       0.013193822 -0.0017127647 -0.008993679 0.0005548888
000020 7c 2a 14 bc 96 3d 35 bc df 44 46 3c fc 3c 91 3c
       -0.009043332 -0.0110620465 0.012101381 0.017729275
000030 ad 51 aa b9 9a e2 ab bc 49 fa 5a ba cd 31 69 3c
       -0.0003248578 -0.020982075 -0.00083533354 0.014233065
000040 c1 24 9e bc 70 52 16 bc b4 ef 6a ba a6 e2 62 38
       -0.019304635 -0.009174928 -0.000896211 5.409368e-05
000050 d7 0f 1b ba 80 10 88 bc 43 02 1c 3c a1 e4 5c 3c
       -0.0005915141 -0.01660943 0.009522024 0.013482244
000060 74 a6 77 bc b7 fa c8 bb c0 5b 2a bc fa 6f 4f 3c
       -0.015115369 -0.006133403 -0.0103978515 0.012660975
000070 ca d5 b1 3b 55 df 82 3c e6 54 66 3c da cb 70 bc
       0.005427097 0.015975634 0.014058327 -0.0146970395

exp_avg_sq f4 [32]
000000 83 b6 18 3c dc 70 6b 36 2a 85 ce 3b fa 6f 88 3b
       0.009320858 3.5083422e-06 0.0063024955 0.0041637393
000010 3a 14 99 3a 00 71 c7 3a 44 44 fe 3b 75 3e 63 3a
       0.0011679002 0.0015216172 0.0077596027 0.00086686696
000020 27 4b a8 3a fd 64 ea 39 9e ff 66 3a 8d 40 b1 3a
       0.001283978 0.000447072 0.00088118936 0.0013523266
000030 f6 82 90 3b ca 28 ab 3b 04 33 47 36 22 37 88 3a
       0.004410143 0.0052233683 2.9683006e-06 0.0010392407
000040 13 db fa 3a 6c 4b 8f 3a 57 69 89 3a 4f 91 92 3a
       0.0019138776 0.0010932512 0.0010483664 0.0011182221
000050 7d cf 51 36 ff cb b4 3a 13 b0 ba 39 9c 66 81 3a
       3.12642e-06 0.0013793706 0.0003560787 0.0009872499
000060 93 7a 01 3c 05 9b 89 39 bc 13 1f 3a 31 42 1b 3c
       0.007902759 0.00026246175 0.00060683093 0.0094762305
000070 72 4c 89 3b 05 83 2b 3b 14 12 bd 3a af e7 cd 3b
       0.004190021 0.0026170623 0.0014424943 0.0062837224

exp_avg f4 [32, 32]
000000 75 a6 94 38 19 f6 8a 33 a6 c3 92 b8 64 74 8c 36
       7.088195e-05 6.470891e-08 -6.998265e-05 4.185875e-06
000010 a9 f2 9f b6 93 4b 5e 37 bf 33 cc b5 0e a9 2d 36
       -4.7668186e-06 1.3249827e-05 -1.5214245e-06 2.5877412e-06
000020 70 96 b2 36 ff 82 17 36 d8 77 b0 b6 95 af 19 b8
       5.3223266e-06 2.2577003e-06 -5.2591604e-06 -3.6641566e-05
000030 94 0b aa 36 46 c3 8e 38 14 24 75 b4 8a 6b 5c b8
       5.0677427e-06 6.80746e-05 -2.2830528e-07 -5.255224e-05
000040 50 e3 83 b6 56 32 b0 36 07 4c a1 b6 ff 5a 05 37
       -3.930567e-06 5.2510686e-06 -4.8070247e-06 7.948604e-06
000050 4f 8b 12 b5 c8 3d 16 38 09 27 3a 37 e9 b3 63 b8
       -5.459196e-07 3.5820325e-05 1.10955525e-05 -5.4288572e-05
000060 6d b1 b5 b5 8d 71 4f b7 b7 bb c8 35 76 15 0b 36
       -1.3537189e-06 -1.23646e-05 1.4955793e-06 2.0725106e-06
000070 2c 39 4d 36 b5 8d 81 b8 9b 36 c6 b7 90 2e 1b b6
       3.0580659e-06 -6.177594e-05 -2.3628867e-05 -2.3123903e-06
000080 db 90 74 b8 9d 49 05 b5 2e 6f 76 38 30 e2 c5 b3
       -5.830904e-05 -4.965348e-07 5.8754515e-05 -9.2146706e-08
000090 7d 1e c3 b7 aa 3f 45 b7 90 d9 45 37 7c c2 a7 37
       -2.3260009e-05 -1.1756938e-05 1.179277e-05 1.9998515e-05
0000a0 87 b4 db 37 e2 f4 07 38 e8 55 be b7 5d 14 6c 38
       2.6190899e-05 3.2414573e-05 -2.2689768e-05 5.628575e-05
0000b0 cf 14 7d 36 5c f8 7a b8 a8 7f ec 34 b6 7f 78 38
       3.771205e-06 -5.9835947e-05 4.4051308e-07 5.9246748e-05
0000c0 69 f7 5e 38 c5 89 b4 37 c8 79 14 b7 93 9a a5 37
       5.3159343e-05 2.1521826e-05 -8.849842e-06 1.9741512e-05
0000d0 52 58 fa 33 86 b9 9b b8 8b 3d cb b8 31 78 72 38
       1.16575976e-07 -7.4255324e-05 -9.6912576e-05 5.7809233e-05
0000e0 e3 5a b1 37 47 71 d7 38 e6 f8 3a 38 c0 ff 85 b7
       2.1142367e-05 0.000102730985 4.457766e-05 -1.5973928e-05
0000f0 4e 44 1a b7 38 8b 69 38 68 ef a7 38 be 20 b5 37
       -9.195019e-06 5.5681186e-05 8.0077734e-05 2.1592128e-05
000100 7d 88 8a b8 78 ac 7a b3 de f1 84 38 1d 89 5a b8
       -6.605776e-05 -5.836452e-08 6.339302e-05 -5.2102947e-05
000110 3d 90 80 b8 54 20 1e 38 1f 6e 87 38 15 04 fc b7
       -6.130382e-05 3.7700243e-05 6.457813e-05 -3.0042642e-05
000120 5d cd 94 38 8e 07 9a 38 c2 d0 80 b8 b1 ee 15 38
       7.095442e-05 7.3446994e-05 -6.1424e-05 3.5746667e-05
000130 e0 98 3b b8 46 53 7d b8 a5 5a 13 b4 7b 51 0f b7
       -4.472665e-05 -6.0397455e-05 -1.3723418e-07 -8.542435e-06
000140 f5 2a 04 39 d1 2b 70 38 de 9b 2a 38 7f e0 c0 b7
       0.00012604504 5.7261266e-05 4.067632e-05 -2.2992723e-05
000150 13 06 15 b5 91 90 95 37 37 87 33 b9 33 da 73 35
       -5.5515665e-07 1.7829503e-05 -0.00017121142 9.0842076e-07
000160 b1 27 a6 38 8e c6 3c 39 47 86 df 38 79 08 97 b8
       7.92289e-05 0.00018003045 0.0001065848 -7.201819e-05
000170 90 48 83 b8 85 a4 ed 36 6e bd c0 b6 94 af af 38
       -6.2600826e-05 7.082303e-06 -5.7440984e-06 8.377354e-05
000180 6f 92 c1 38 79 ec d8 34 40 10 bd b8 9e de 12 38
       9.2302325e-05 4.0405192e-07 -9.015249e-05 3.501644e-05
000190 61 c4 5b 38 72 c3 90 b7 a1 34 4e b8 9f 36 21 37
       5.239656e-05 -1.7257149e-05 -4.916324e-05 9.609065e-06
0001a0 a0 72 7d b8 7f 13 8a b8 59 93 5a 38 bd 59 7d b8
       -6.0426653e-05 -6.583984e-05 5.211248e-05 -6.0403476e-05
0001b0 5c 04 e8 37 00 f6 b7 38 67 b2 8b b4 6f 6f fe b7
       2.7658585e-05 8.771941e-05 -2.6020572e-07 -3.033105e-05
0001c0 79 c3 ee b8 8d 1b 4c b8 a9 d6 bc b7 45 4e 94 36
       -0.00011385134 -4.866305e-05 -2.2511305e-05 4.4198555e-06
0001d0 31 1f 7b 34 19 45 c6 37 fe 80 30 39 43 52 1e b8
       2.3387544e-07 2.3635615e-05 0.00016832721 -3.7746748e-05
0001e0 1c 4e 87 b8 c3 3a 3a b9 61 34 c7 b8 ea 58 6e 38
       -6.451851e-05 -0.00017760233 -9.498816e-05 5.682643e-05
0001f0 57 14 44 38 45 0d 36 b8 f6 cc 0a b8 36 32 8f b8
       4.6748984e-05 -4.340454e-05 -3.309265e-05 -6.828124e-05
000200 66 ed 3d b9 17 13 b5 b4 b5 7f 3a 39 40 90 ea b8
       -0.00018112882 -3.3727767e-07 0.00017785917 -0.00011184858
000210 20 02 87 b8 35 5e 24 38 f9 7b 08 39 4f 82 a3 b8
       -6.4376974e-05 3.9188384e-05 0.00013016154 -7.7967175e-05
000220 07 d2 9e 38 fd 21 a7 38 0a c7 86 b8 b2 89 b8 38
       7.573148e-05 7.969511e-05 -6.426692e-05 8.7994515e-05
000230 4e 9d e7 b8 9c 27 35 b9 09 0e 7e 34 cf 25 b8 38
       -0.000110442386 -0.00017276261 2.36607e-07 8.780846e-05
000240 3f 34 2c 39 bd 7f 78 38 41 1b d2 38 d3 8a c1 b8
       0.00016422661 5.9246773e-05 0.00010018657 -9.228815e-05
000250 c9 aa 6a b4 ec b1 63 b8 b7 7b 50 b9 07 8a cc 38
       -2.185508e-07 -5.428672e-05 -0.00019882513 9.7531876e-05
000260 a4 3f 12 39 3c c5 5b 39 54 a1 00 39 89 f2 0b b9
       0.00013947353 0.00020958943 0.0001226713 -0.00013346424
000270 74 8c 03 b9 70 18 f6 38 d5 0c 27 38 02 40 09 39
       -0.00012545456 0.00011734746 3.9827853e-05 0.00013089183
000280 da c9 6b b9 3b 4f 15 35 7a 4a 65 39 ee 1e 58 b9
       -0.00022486542 5.562212e-07 0.00021866887 -0.00020610887
000290 00 d7 98 b8 7f 5f be 38 48 be 62 39 e8 85 3e b9
       -7.287972e-05 9.0776935e-05 0.00021623925 -0.00018169696
0002a0 ad 1d b8 38 92 b2 af 38 9c 6f 9a b8 1b 11 7c 38
       8.779331e-05 8.3779116e-05 -7.364081e-05 6.0097413e-05
0002b0 c4 fa 5d b9 93 3f 5a b9 a0 cd 18 b5 c2 06 8b 38
       -0.0002116962 -0.00020813783 -5.6923636e-07 6.629295e-05
0002c0 7b 2a 51 39 ca de 8b 38 e3 14 54 39 88 df 5c b9
       0.00019947618 6.669534e-05 0.00020225676 -0.00021064107
0002d0 b3 68 03 b5 6b c1 8b 37 58 5a 3c b9 df 97 b0 38
       -4.895366e-07 1.6660159e-05 -0.00017962733 8.420622e-05
0002e0 87 42 61 39 ae 6f 45 39 47 9e 11 39 b5 94 60 b9
       0.00021482455 0.00018828988 0.0001388724 -0.00021417702
0002f0 75 80 5f b9 94 63 01 39 81 fd 72 b8 7f 1c 50 39
       -0.00021314791 0.00012339494 -5.793339e-05 0.00019847041
000300 19 b3 ee 39 93 28 f1 b3 0c fa e9 b9 66 2d a1 39
       0.00045528336 -1.12298174e-07 -0.00044627523 0.00030742137
000310 a3 9b fc 38 b9 b6 de b8 33 ff ac b9 49 29 84 39
       0.00012045286 -0.0001061982 -0.00032996535 0.00025207762
000320 c8 03 17 b9 f9 47 1a b9 c0 d1 fc 38 31 bd 3b b9
       -0.00014401891 -0.00014713396 0.000120553654 -0.00017904189
000330 08 b5 a4 39 3e c6 e1 39 ac 98 87 33 77 a3 62 b9
       0.00031415396 0.00043063046 6.314198e-08 -0.00021613935
000340 4b 77 b2 b9 07 11 e6 b8 0f b8 9a b9 a4 d8 9e 39
       -0.00034039686 -0.00010970426 -0.00029510303 0.00030297518
000350 1a 9f 6c 33 3c b5 c5 38 b6 89 bb 39 9e bd 7c b9
       5.5092734e-08 9.4274495e-05 0.00035770022 -0.0002410323
000360 d4 75 af b9 e7 80 c5 b9 fe 23 7a b9 2d 34 ad 39
       -0.0003346639 -0.00037670808 -0.00023855266 0.00033036005
000370 fb 23 aa 39 03 36 9f b9 6b 5a c5 b7 fa fb a2 b9
       0.00032451734 -0.00030367085 -2.3526334e-05 -0.00031086785
000380 23 8d 0e 3b b1 49 4a b7 c7 f4 06 bb 84 64 6e 3b
       0.0021751605 -1.2057296e-05 -0.0020592676 0.003637583
000390 95 dc be 3a 4c fb 0d bb fb 67 78 bb c7 a8 5c 3b
       0.0014561588 -0.0021664677 -0.0037903774 0.0033669935
0003a0 ec bf e4 ba 60 0c cd ba 58 a6 c2 3a 44 c1 23 39
       -0.0017452217 -0.0015643947 0.00148506 0.00015616888
0003b0 aa 60 72 3b c6 e9 f5 3a 8c 0d 85 37 cb ca 56 3a
       0.0036983886 0.0018761687 1.5861144e-05 0.00081936707
0003c0 89 2b 63 bb 01 a0 b1 ba 56 3d 6b bb f7 d3 6f 3b
       -0.00346634 -0.0013551713 -0.0035894713 0.0036594847
0003d0 53 42 ac 37 3a 86 16 bb d2 42 37 3b b3 ed e1 39
       2.0534882e-05 -0.002296819 0.0027963412 0.00043092444
0003e0 63 06 77 bb c4 5e 3e bb 92 df 26 bb be 13 76 3b
       -0.0037693016 -0.0029048184 -0.0025462848 0.0037548388
0003f0 17 b6 74 3b 6a ae 3a b9 ad 0a 30 3b 2d a6 67 bb
       0.003733998 -0.00017803317 0.0026861832 -0.0035346851

exp_avg_sq f4 [32, 32]
000000 99 db 0a 36 11 34 45 30 c7 ad 09 36 ed 69 da 35
       2.0691425e-06 7.1742173e-10 2.0515743e-06 1.6273094e-06
000010 74 9e 9c 34 69 4c 80 35 3d 59 ef 35 2c 74 d0 35
       2.9172554e-07 9.558981e-07 1.7832859e-06 1.5531018e-06
000020 3c cf da 34 f3 70 ab 34 f9 f6 a6 34 2b cd a6 35
       4.0756447e-07 3.1933413e-07 3.1099606e-07 1.2427676e-06
000030 ad 8c e6 35 41 4f 07 36 ea 5e 33 30 79 e7 10 36
       1.7177277e-06 2.01627e-06 6.52547e-10 2.1592407e-06
000040 0f c1 b4 35 5b 7b 8d 34 06 6d db 35 fb d7 ed 35
       1.3467233e-06 2.635305e-07 1.6348502e-06 1.7720735e-06
000050 63 f8 27 30 0c ed 25 36 c3 20 a3 35 4b c6 09 36
       6.1107225e-10 2.4724895e-06 1.2153981e-06 2.0530013e-06
000060 71 42 e5 35 15 c9 b4 35 17 38 4d 35 40 6a e4 35
       1.7081167e-06 1.3469568e-06 7.645007e-07 1.7018247e-06
000070 f6 38 e4 35 0e a1 0b 36 68 5b 25 36 0d 56 c0 35
       1.7003902e-06 2.080636e-06 2.4640121e-06 1.4330159e-06
000080 06 66 ee 35 f8 2e 33 30 6e d0 eb 35 5d 52 ae 35
       1.7762075e-06 6.518657e-10 1.7569525e-06 1.2987981e-06
000090 cb 75 74 34 fb 93 40 35 b0 ff c2 35 32 15 a2 35
       2.2767124e-07 7.1740914e-07 1.4528541e-06 1.2076109e-06
0000a0 3f 0f aa 34 e9 29 8b 34 b1 53 81 34 23 d8 87 35
       3.167606e-07 2.592126e-07 2.4089016e-07 1.0121188e-06
0000b0 0c bb b8 35 20 0c e7 35 a9 13 28 30 75 52 e1 35
       1.3763506e-06 1.721437e-06 6.114598e-10 1.6787804e-06
0000c0 f8 cd 95 35 02 2b 5b 34 ea d1 ad 35 95 fb bc 35
       1.116131e-06 2.041161e-07 1.2950597e-06 1.4080312e-06
0000d0 2e 12 26 30 c7 ab fb 35 74 08 95 35 6d ca d8 35
       6.0416283e-10 1.8750951e-06 1.1103825e-06 1.6152168e-06
0000e0 1d 66 bb 35 5c e1 a5 35 66 d6 25 35 a1 d5 b9 35
       1.3962305e-06 1.2359046e-06 6.177928e-07 1.3845748e-06
0000f0 5f 94 b8 35 25 44 df 35 6e 4c fa 35 bd 5d 9a 35
       1.375225e-06 1.6634627e-06 1.8648695e-06 1.1501176e-06
000100 ab 74 82 36 1a e4 a7 30 81 1f 81 36 55 54 3e 36
       3.887884e-06 1.221568e-09 3.848167e-06 2.8361294e-06
000110 39 7f 0f 35 c1 ca e0 35 0f b0 50 36 23 2e 36 36
       5.3456785e-07 1.674831e-06 3.1096895e-06 2.7146968e-06
000120 cd 1e 48 35 14 5a 22 35 a5 81 18 35 3a 38 18 36
       7.4550627e-07 6.0480784e-07 5.681307e-07 2.2682493e-06
000130 75 cf 47 36 39 4d 7d 36 e5 5f 98 30 f9 e0 83 36
       2.9774067e-06 3.7744887e-06 1.108671e-09 3.9302945e-06
000140 6f 3b 2a 36 c5 3b 01 35 20 c9 3e 36 d3 e6 4d 36
       2.536657e-06 4.814322e-07 2.8429276e-06 3.0681738e-06
000150 13 f3 9f 30 a2 55 98 36 3a 8f 25 36 4e de 7a 36
       1.1637858e-09 4.539922e-06 2.4670285e-06 3.7382301e-06
000160 a6 aa 4a 36 db bf 37 36 37 5c c1 35 f6 e1 48 36
       3.0199676e-06 2.73808e-06 1.4406459e-06 2.993385e-06
000170 93 55 47 36 05 9f 7e 36 91 65 98 36 f1 35 2c 36
       2.9703122e-06 3.794151e-06 4.541777e-06 2.5661395e-06
000180 c9 72 68 36 46 66 8d 30 9d 37 66 36 e0 3c 25 36
       3.4637508e-06 1.0288168e-09 3.4305042e-06 2.462235e-06
000190 70 79 f3 34 46 83 c4 35 39 09 35 36 a7 a8 1e 36
       4.5350635e-07 1.4641344e-06 2.697647e-06 2.3642003e-06
0001a0 11 fb 29 35 ba cc 08 35 eb 8a 01 35 94 58 08 36
       6.3322756e-07 5.0961864e-07 4.8258397e-07 2.0317138e-06
0001b0 2f f3 2d 36 c8 fb 61 36 b1 ec 81 30 49 4e 6a 36
       2.592056e-06 3.3674169e-06 9.453257e-10 3.4914285e-06
0001c0 cf 84 10 36 cf e5 db 34 f6 fd 25 36 c0 db 33 36
       2.1534977e-06 4.0959137e-07 2.473474e-06 2.680099e-06
0001d0 02 30 80 30 1e e8 85 36 fe ce 0c 36 69 76 5f 36
       9.32687e-10 3.990731e-06 2.098211e-06 3.3298513e-06
0001e0 5e ec 2e 36 35 76 1c 36 1f 6e a3 35 4a a6 2d 36
       2.6065604e-06 2.3314617e-06 1.2176496e-06 2.5875802e-06
0001f0 34 d4 2c 36 c4 5d 63 36 2a a3 85 36 17 b8 13 36
       2.5753516e-06 3.3880215e-06 3.9827037e-06 2.2011861e-06
000200 3b a2 be 35 f0 81 fc 2f 84 d2 bc 35 b6 88 92 35
       1.4203318e-06 4.593086e-10 1.406836e-06 1.0917636e-06
000210 a2 bd 4c 34 43 96 2b 35 85 78 a0 35 7e e2 8b 35
       1.9067969e-07 6.3921124e-07 1.1956005e-06 1.0422225e-06
000220 05 4a 8f 34 73 a0 62 34 01 8c 5a 34 28 3f 63 35
       2.6689682e-07 2.1106261e-07 2.0353765e-07 8.4655994e-07
000230 bc 20 9b 35 cd 56 b9 35 f5 08 e7 2f 86 63 c0 35
       1.1557927e-06 1.3808836e-06 4.202502e-10 1.433408e-06
000240 6e 7c 70 35 52 63 39 34 63 80 93 35 1b 98 a0 35
       8.9588036e-07 1.72656e-07 1.0989719e-06 1.1965197e-06
000250 7e ab cd 2f cd e0 da 35 46 e2 61 35 d1 b7 b7 35
       3.7411135e-10 1.6307691e-06 8.4148303e-07 1.368806e-06
000260 c7 20 99 35 0f fc 7a 35 0b bd 07 35 4e ba 98 35
       1.1408928e-06 9.349905e-07 5.056651e-07 1.1379104e-06
000270 da fa 98 35 99 e2 ba 35 02 82 da 35 1a a3 7f 35
       1.139789e-06 1.3924029e-06 1.6280103e-06 9.5232247e-07
000280 59 9e 30 36 b3 27 1d 30 b2 1d 2f 36 b2 80 e5 35
       2.6318214e-06 5.7172683e-10 2.6094317e-06 1.7099285e-06
000290 19 95 93 34 7a 11 8c 35 97 e8 f9 35 8b ee e1 35
       2.7489367e-07 1.0435899e-06 1.8619638e-06 1.6833231e-06
0002a0 7a d3 ce 34 ba fc a2 34 00 ec 9d 34 9e cd d5 35
       3.852436e-07 3.0358734e-07 2.9415241e-07 1.5929579e-06
0002b0 4f d6 f4 35 da 35 2c 36 11 c6 12 30 a9 51 2d 36
       1.8241789e-06 2.5661343e-06 5.339596e-10 2.5826541e-06
0002c0 3e ce b0 35 e8 1c 86 34 0e f5 e9 35 f4 79 01 36
       1.3173046e-06 2.4980477e-07 1.7431173e-06 1.9293484e-06
0002d0 c2 0a 2e 30 46 97 41 36 f0 2e b9 35 42 db 26 36
       6.331612e-10 2.8847294e-06 1.3797235e-06 2.4863552e-06
0002e0 73 63 eb 35 4e 82 cf 35 fd bb 43 35 3a ca eb 35
       1.7537808e-06 1.5460625e-06 7.291672e-07 1.756772e-06
0002f0 af e3 ed 35 b2 b8 2a 36 8b f0 40 36 90 22 c1 35
       1.7724141e-06 2.543948e-06 2.8750244e-06 1.438968e-06
000300 be 6f 83 36 37 65 98 30 fc 5e 82 36 17 40 40 36
       3.9171127e-06 1.1088223e-09 3.8853595e-06 2.8647535e-06
000310 7c 7b 08 35 0d 7e e7 35 db e8 50 36 3d aa 3a 36
       5.084364e-07 1.7247527e-06 3.1129955e-06 2.7815252e-06
000320 79 de 3e 35 36 97 15 35 8f b1 11 35 0b 00 1f 36
       7.1104256e-07 5.5726866e-07 5.427509e-07 2.3692871e-06
000330 21 01 4b 36 60 3c 80 36 b7 89 8a 30 06 cb 88 36
       3.0250014e-06 3.821726e-06 1.0079962e-09 4.076751e-06
000340 a5 87 1e 36 ff 26 f7 34 14 3e 42 36 fc 91 53 36
       2.362279e-06 4.6035709e-07 2.8944387e-06 3.1526424e-06
000350 32 84 91 30 bd f9 9c 36 5f 12 14 36 3b 3a 82 36
       1.0587711e-09 4.6782357e-06 2.2064412e-06 3.881081e-06
000360 7c f5 47 36 80 72 24 36 96 6a b3 35 93 6c 47 36
       2.9796201e-06 2.4504552e-06 1.336756e-06 2.971651e-06
000370 70 c1 47 36 6e ef 83 36 f6 ce 9c 36 cb 40 28 36
       2.9765906e-06 3.9319775e-06 4.6732557e-06 2.5071665e-06
000380 59 27 16 39 f2 ad c1 33 8a ac 05 39 27 2b e1 39
       0.00014319773 9.018903e-08 0.00012748144 0.00042947495
000390 fe c6 92 38 f1 e0 25 39 d2 94 f4 39 57 e4 c0 39
       6.998888e-05 0.00015819423 0.00046650186 0.0003679122
0003a0 fd 2f d2 38 bd 7a ac 38 2a 2f 9b 38 fb d2 1f 36
       0.00010022519 8.224461e-05 7.399761e-05 2.3815653e-06
0003b0 d9 c1 e8 39 49 26 db 38 b0 ed bb 33 bf 5a f8 37
       0.00044394916 0.00010449865 8.751101e-08 2.960616e-05
0003c0 5e e5 cc 39 93 5e 81 38 03 45 db 39 cf e3 e3 39
       0.00039080804 6.168815e-05 0.00041822353 0.00043466545
0003d0 5d 26 48 33 b7 2a 3b 39 88 ba 85 39 60 52 3c 37
       4.660102e-08 0.00017849622 0.00025506713 1.1224853e-05
0003e0 d3 e7 f1 39 a5 73 90 39 cb 75 5e 39 43 0b f0 39
       0.00046139825 0.00027551982 0.00021215451 0.00045784758
0003f0 73 4d ed 39 a6 48 bb 35 b3 8f 7a 39 0f e5 d4 39
       0.00045261867 1.3953729e-06 0.0002389539 0.00040606453

exp_avg f4 [32]
000000 33 46 b6 b7 46 07 20 39 8b c7 86 39 0f 14 87 b9
       -2.172878e-05 0.00015261499 0.00025707143 -0.0002576415
000010 6f 50 9e 39 ed ad 89 39 37 42 0d ba 1b b4 7e bb
       0.00030196036 0.0002626026 -0.000538859 -0.0038864675
000020 7c 82 49 3b 16 41 66 b9 c0 4d 22 b9 16 f1 d2 38
       0.003074794 -0.00021958756 -0.00015478488 0.00010058486
000030 3d b1 3c b8 80 bc 96 39 23 ff f3 ba 13 ec 6b bc
       -4.498776e-05 0.00028750673 -0.0018615465 -0.014399546
000040 7c 4d 36 38 17 b8 a8 b9 05 fa 5c bb 78 15 92 39
       4.3464344e-05 -0.00032180615 -0.003371836 0.00027863286
000050 68 f1 67 3b 18 a7 0d bb 7e a4 27 3c 02 be 4a 3a
       0.0035391692 -0.0021614488 0.010232089 0.0007734002
000060 88 6f 3a 39 64 bb 12 3c 86 d9 b5 39 69 e6 bb b9
       0.00017779891 0.00895581 0.00034685078 -0.00035839088
000070 a5 5e 51 38 df a7 20 bb 15 31 63 bb 9e 93 3f bc
       4.9917628e-05 -0.0024514121 -0.0034666706 -0.0116929095

exp_avg_sq f4 [32]
000000 73 0f 39 36 b8 64 2c 36 e7 b1 bc 36 a0 ac a1 36
       2.757614e-06 2.5688623e-06 5.623547e-06 4.81827e-06
000010 9f d4 01 36 c5 37 5f 36 61 3e aa 36 5e 9d 00 3a
       1.934626e-06 3.3262052e-06 5.0736567e-06 0.0004906262
000020 74 d7 b6 38 66 49 d0 36 b3 b6 8b 36 06 60 df 35
       8.7185676e-05 6.2074278e-06 4.163792e-06 1.6642741e-06
000030 9a e0 18 37 de 7a 41 37 ee 25 59 39 13 47 a3 3a
       9.1122e-06 1.1532304e-05 0.00020708863 0.0012457095
000040 91 21 21 36 f1 2c 81 36 91 33 60 3a 63 02 7b 36
       2.4010408e-06 3.8497315e-06 0.0008552606 3.7403304e-06
000050 42 57 43 3a 42 87 08 3a 5e ff 63 3a fa 3f 1d 36
       0.0007451662 0.0005208143 0.00086974155 2.3432062e-06
000060 af a4 57 36 ca 29 be 39 da 5c 0f 36 a3 74 7b 37
       3.2133355e-06 0.0003627076 2.1362707e-06 1.4987922e-05
000070 5c ca 70 36 7f 0e 9a 3a 0e 96 cc 38 f3 33 0d 3a
       3.5880576e-06 0.0011753588 9.755428e-05 0.0005386464
