tier_2/deep_learning/lightning_logs/version_1/checkpoints/epoch=2-step=83919.ckpt (torch, 53034 bytes, 27 tensors)

input.weight f4 [32, 2]
00000000: c7e1 3abd f8d3 20bd 5f8f 12bf 43cb 9a3f
00000010: 5d6f 0c3e 91bb 60bf 5893 5bbf 2354 83be
00000020: ea4c 50bf 463a 7b3d ef02 0c3e 7926 23bf
00000030: 4cc0 99bf 6990 9d3e ccab 053d c2de 32bd
00000040: d0da 663f 6f48 723e 162c 53be ce53 02bf
00000050: a34a 263d fc83 6dbf e13f 9b3f bda9 33be
00000060: 3b91 18be 9c47 09bf c135 17bf 294a aabe
00000070: 10bd 32bf b061 45be 3515 52bf cd67 5fbf
00000080: dedd ab3f 3ff4 41bf 0bce b33f b3e5 9fbf
00000090: e214 a7bd ce62 38bf 325d e93e 67ee 603f
000000a0: 9a72 5f3f 392d bbbf daf1 f0be 2f2f 953f
000000b0: 246d 42bf 4c6f bfbe 1de4 89bf 97d7 c4be
000000c0: bf15 21bf 9ae5 67be e85c 393f 2939 b6bc
000000d0: 03ee 76bf e7c7 86bd 2667 5ebf f0de 92bf
000000e0: 534c 10be f851 853f a4c8 533f 4441 8d3f
000000f0: 258f 123e 4a9b 6a3f 3ba9 73bf 73cf 143d
-0.045625474 -0.03926465 -0.57250017 1.209328 0.13714357 -0.87786204 -0.85771704 -0.2565013
-0.8136736 0.06133487 0.13672994 -0.6373058 -1.2011809 0.3077424 0.03263454 -0.04366947
0.9017763 0.23660444 -0.20622286 -0.50909126 0.040598523 -0.9277952 1.2128869 -0.17545219
-0.14899151 -0.5362489 -0.59066397 -0.33259705 -0.69819736 -0.19275546 -0.8206361 -0.8726776
1.3427083 -0.75763315 1.4047254 -1.2491974 -0.0815828 -0.72025764 0.45578915 0.87863773
0.87284243 -1.4623176 -0.47059518 1.1655024 -0.75947785 -0.373896 -1.077274 -0.38445732
-0.62923807 -0.2264618 0.7240739 -0.022244053 -0.9645693 -0.06581097 -0.8687614 -1.1474285
-0.14091615 1.041564 0.8272803 1.1035542 0.14312418 0.916432 -0.951801 0.03633065

input.bias f4 [32]
00000000: 5130 6a3f fd1f 12bf 0740 6dbf 31bd 873f
00000010: 199b 2c3f c925 31bf 97e4 83bf 09ab 603f
00000020: d70f 05bf e26b 18bf 3fa8 87bf caae 98bf
00000030: 106c 17bf 6c0e c43e 1895 543f 3791 a5be
00000040: 356b 193f 2b4f 19bf 62fa 53bf 4430 8b3e
00000050: b88c ad3d 4a98 99bf 0615 babf a6d0 fe3e
00000060: 8467 24bf d12a 4ebf cbcf 5d3f 3b62 603c
00000070: da81 67bf d27f a93e ec6f 39bf 5414 3e3f
0.91479975 -0.5708006 -0.9267582 1.0604612 0.6742416 -0.6919828 -1.0304135 0.8776098
-0.51977295 -0.59539616 -1.059822 -1.1928341 -0.59149265 0.38292253 0.8304 -0.32337353
0.5992921 -0.59886426 -0.8280393 0.2718526 0.084741056 -1.19996 -1.4537666 0.4976856
-0.6422045 -0.8053408 0.8664519 0.013695295 -0.9043251 0.33105332 -0.72436404 0.7424977

hidden0.weight f4 [32, 32]
00000000: f1dc 62be a6e5 fcbe dc74 bebe 8dbc 98be
00000010: 0514 223e eeef 40be 02e4 84be d053 c8be
00000020: 6671 943a 81f3 b03d fd47 78be 140f 64be
00000030: 6301 5d3c 6f10 e8bd d0d2 cebe aab1 a4be
00000040: c492 163f 107f 9c3d e05a 9bbe 0862 963e
00000050: 46e3 e53e 59e4 dabe d1e4 093f 88e9 093e
00000060: f7d0 c13e 951a 2ebc ebed 1dbe e120 f4be
00000070: 3290 94be 0f82 8c3e fc31 dc3d d4d6 123e
00000080: a46d 143d 9077 e0bd d5e4 373d 9991 6c3f
00000090: 3fe2 c03e 8896 3abb 7563 66be 2550 593e
000000a0: 8ef0 26bf 7928 1f3e 704b 773e 9beb e8be
000000b0: 45b8 b93e 5b4f 9c3f 1826 693f 114e 743e
000000c0: d5ee 3fbd ed62 883c 88d1 9d3e 3f2e 88be
000000d0: 4b78 4d3e 1d09 103d 35c4 3dbe 100d 813f
000000e0: 2602 673e f7e2 e6be 1303 083f 3fdb 203e
000000f0: 8819 83be 49fc 6d3d b883 a2be e95b 073f
00000100: 218a 993c 199c 933d 212d 913e 8abf 83be
00000110: 08d5 d9bd d2f9 83bd d76c 0d3f b2ed 593e
00000120: b438 443e d05c 9ebe 7556 2b3e 1cfc 013e
00000130: f74a d13d c28a e4bc 6f69 a5be 060c 16be
00000140: 5596 d5be 9fb4 e9be a996 c3bd c654 ffbd
00000150: 3d42 21be 44d9 a3be 272d b6be 24c3 34be
00000160: 68b2 65be 7c49 f53d 8b84 9cbe 9d21 ba3e
00000170: ebde 08bf c720 503d d5c3 ebbe 2f93 8b3d
00000180: 7e6d 123f 5d1e 733e 2512 0f3f 243e 68bd
00000190: ad69 153e b565 973e a986 013f 987a b53e
000001a0: 7f39 403d 56cc 0c3e 76fc 0c3f 9572 d13e
000001b0: 7844 773d 16c4 503d a2bd 863e c570 213e
000001c0: 5645 99be e798 66be 6ecf a63e e577 88bc
000001d0: 5b60 51be cee6 003f 27e5 87bd 1388 abbe
000001e0: b59a 903d 27e4 9dbd 122e 26bd 8f0c a53e
000001f0: 4593 633e a717 61be c0e3 ff3d ddb3 16bd
00000200: 4d1d 6abe fbae 6cbf 1fd7 fdbd 681b 7c3e
00000210: 1477 703e 4083 01be b11e b0be 74da 2a3c
00000220: 691a 9bbe 6b99 bc3e 81eb 43be 4bf4 1ebf
00000230: 219f 933e bd39 8cbd 9b0d 9abd 21f2 a5be
00000240: 4477 ce3e f3f3 49bb 84b0 253d 7288 fe3d
00000250: 26cf 623e d292 a9bf 8e64 f23e 7a80 913e
00000260: ef46 f23d 3281 d43d c3bf 063e ad79 babe
00000270: acda 13bf 9508 1b3f aed9 48be 2b86 e33e
00000280: 75a8 ccbe 0617 643d 2377 0d3f fdea ddbf
00000290: 77fa 58bf ff15 8c3e 464b a13e 715b 57be
000002a0: 81ce 193f 9876 d23e 4bee e23e 4b37 833f
000002b0: 1d82 843e 1225 2cbf 1c42 b9bf f751 723e
000002c0: 3aa7 b6be a4ac 523d e43b 073f 4ee7 923c
000002d0: 7028 abbc 6b20 983e 3aaf c93e 7b66 97be
000002e0: c46b bf3c 76a2 f93f e676 a3bf cb97 debe
000002f0: 2520 c63e 8ec0 8abe 1871 b43e ceab 53bf
00000300: b7fa f23e 439d 483e edd6 f63e d053 6f3e
00000310: 13f6 b5bd 4680 9f3e aaa7 153e e721 333f
00000320: 15da 073e db19 393d e59f c63e 07c1 a83e
00000330: 7719 ad3d d808 26bd 5a6f 953d f5a5 c83d
00000340: 300c aebe e622 22be 2f22 3e3e e778 f9bd
00000350: 74c6 c6be 8ea5 1d3f d5bf 12bd 9ff3 8dbe
00000360: 81dc 48be 8d6f 2dbe 990b b8bd b2fa 183e
00000370: ac00 953e bb07 39bd 6261 cb3d 7da9 82bd
00000380: 6863 d23e bb04 783e 389a 063f cc1e 763e
00000390: d9fd 37be ee18 3a3e e76d 113e 72a1 df3e
000003a0: 9a6b 4f3e efbb c23d 70af aa3e 50d0 f63d
000003b0: 1aa9 653d a110 c4bd c876 0a3e 1602 093e
000003c0: 7db6 74be 4c9b 89be c2d4 7e3d c39c 473e
000003d0: 08bf b4be 2b0b c43e 4118 78bd 6ea9 6ebe
000003e0: 0993 56be 6541 083d 7dce 42be b46a 86bd
000003f0: ab61 ba3e cb4a 8cbe 61d3 8abd b1c1 25bd
-0.22154595 -0.49393958 -0.37198532 -0.29831353 0.1582795 -0.18841526 -0.25955206 -0.39126444
0.0011325299 0.08640195 -0.24246211 -0.22271377 0.0134891 -0.113312595 -0.40395212 -0.32166797
0.58817697 0.07641423 -0.3034277 0.29371667 0.44899958 -0.4275234 0.5386477 0.13467991
0.3785474 -0.010626455 -0.1542279 -0.47681335 -0.29016262 0.27442977 0.10751721 0.14339763
0.036237374 -0.10960305 0.044895966 0.92409664 0.37672612 -0.0028471071 -0.22498877 0.21221979
-0.6521081 0.15542783 0.24149871 -0.45492253 0.362734 1.2211717 0.9107375 0.23857905
-0.046858627 0.016648734 0.30823922 -0.26597783 0.2006542 0.03516494 -0.18531878 1.0082111
0.22559413 -0.45095035 0.5312969 0.15708636 -0.25605416 0.058101926 -0.31741118 0.5287462
0.018742623 0.07207508 0.28354743 -0.2573207 -0.106363356 -0.06444134 0.552442 0.2128208
0.19162256 -0.30930185 0.167322 0.12693828 0.102193765 -0.027898196 -0.32307002 -0.14653024
-0.41716257 -0.45645615 -0.095502205 -0.12467341 -0.15747924 -0.32001698 -0.35581324 -0.17652565
-0.22431338 0.11976907 -0.30569872 0.3635377 -0.53465146 0.05081251 -0.46047845 0.068151824
0.5719832 0.23742051 0.5588706 -0.056699887 0.14591093 0.29569784 0.505961 0.35445094
0.046929833 0.13749823 0.55072725 0.40907732 0.06036803 0.050968252 0.26316553 0.15765674
-0.29935712 -0.22519265 0.3258013 -0.016658733 -0.20446913 0.5035218 -0.06635504 -0.33502254
0.07060758 -0.07709532 -0.04057128 0.32236144 0.22224148 -0.21981679 0.12494612 -0.036792625
-0.2286274 -0.924545 -0.12394547 0.2461983 0.23482925 -0.12647724 -0.34398416 0.01042806
-0.30293587 0.368358 -0.19132806 -0.6209151 0.28832343 -0.0684695 -0.07522126 -0.32411292
0.40325367 -0.003081557 0.04045154 0.12428369 0.22149333 -1.3247931 0.47342342 0.28418332
0.11829936 0.103762046 0.13159089 -0.36420956 -0.5775554 0.6055997 -0.19614288 0.444383
-0.39972273 0.05568602 0.55259913 -1.7337338 -0.8475718 0.27360532 0.31502742 -0.21030976
0.60080725 0.41106105 0.44322428 1.0251249 0.2588052 -0.67244065 -1.44733 0.2366408
-0.3567446 0.051434174 0.5282576 0.01793256 -0.020893306 0.29712233 0.393915 -0.29570374
0.023366816 1.9502704 -1.277066 -0.43475184 0.386964 -0.27100033 0.35242534 -0.8268403
0.47456905 0.1959124 0.4821085 0.23371816 -0.088848256 0.31152552 0.1461474 0.69973606
0.13266785 0.045190673 0.38793865 0.32959768 0.08452123 -0.040535778 0.07296629 0.09797279
-0.33993673 -0.15833625 0.18567728 -0.121812634 -0.38823283 0.6158074 -0.035827477 -0.2772493
-0.19615366 -0.16937084 -0.08986587 0.14939383 0.29102075 -0.045173388 0.09930684 -0.063799836
0.41091466 0.24220555 0.5257907 0.24035186 -0.17967929 0.18173572 0.1420208 0.4367786
0.2025589 0.09508502 0.33336973 0.12051451 0.05606947 -0.09573484 0.13521874 0.13379702
-0.23897739 -0.26876295 0.06221462 0.19493394 -0.35301995 0.3828977 -0.060570005 -0.2330682
-0.20954527 0.03326549 -0.19024082 -0.06563321 0.3640264 -0.27400813 -0.067785986 -0.04046792

hidden0.bias f4 [32]
00000000: a464 6ebe b976 f4bd ed68 743e b0e9 033f
00000010: 8c2b 7ebe 1308 33be bc22 3e3f e1b7 213f
00000020: ef66 8bbe 3edf ed3e c990 84bd e5fa aabe
00000030: 54c6 e3be ca8e 12bf 04cd 923e ae58 9b3e
00000040: 2418 363f 658f 8fbe 0490 33bf 2cdf 12bf
00000050: 445a 3fbe f783 b93e 7c6c b1bd a792 0abf
00000060: 69e1 10bf 4b22 283e fa7b aebe 2b48 553d
00000070: 2224 2abe c248 883e e391 34be e2a4 5c3e
-0.23280579 -0.11936707 0.23868151 0.51528454 -0.248213 -0.17483549 0.7427175 0.631712
-0.2722697 0.46459383 -0.06472928 -0.33394542 -0.4448725 -0.5724913 0.2867204 0.30341095
0.71130586 -0.2803909 -0.70141625 -0.57371783 -0.18686777 0.36233494 -0.0866327 -0.54130024
-0.5659395 0.16419332 -0.34078962 0.052070778 -0.16615346 0.2661801 -0.17633776 0.21547273

hidden1.weight f4 [32, 32]
00000000: 6dcf afbc 7f88 78bd 7dd0 f8bc 8402 e33d
00000010: a42c d13d fcfb bd3d c2d8 473e 02f8 96bd
00000020: 5a13 453e ba86 b5bc 04c6 3f3d 0d38 1dbd
00000030: 1e0b 3d3d d70f d6bd cbb9 573d 6aa1 673d
00000040: ffb7 463c d34f be3b be00 003e 74cb 183d
00000050: 1d15 563d 9441 bf3b 86c9 4dbd 8b60 1dbc
00000060: cc14 9dbc 5d40 4b3d 0e02 0f3e ab70 cc3d
00000070: a4dc 2f3c 5f06 b83d faca 0d3d fdc6 953d
00000080: 6f98 00bf 1e22 263f 1326 50be bd3d c63e
00000090: f08b 8cbe 5959 833e 410c ed3e d34e bb3e
000000a0: e001 013e a8ef e4bd 2aef 11bd d8ac 283e
000000b0: 8632 f93c cf02 5cbd aea8 b4be ee7f 963e
000000c0: f2f3 a3be 0738 25bd 5dbb 7c3e ad97 29bf
000000d0: 1c2c b0bd 9ec9 563e 54f3 223f eeb1 093f
000000e0: 7032 edbe 634e 98bf 3de0 63be 78b6 853f
000000f0: 1cdc 293f 0c10 7f3f 4e35 39bb 0010 0f3e
00000100: 91ea 573d ba0f 1a3a 87ca 4e3c f1fd 05be
00000110: b027 843b b352 0cbd 4621 503c 7a61 3dbd
00000120: da29 90bc 59cb 3e3e ed57 8bbc 8f9c 013e
00000130: 26f9 973c 2ad8 753d cfb5 20be b49e cf3d
00000140: cdc0 adbd 2ab9 3bbd 6a20 92bd 89a4 ccbd
00000150: 3bbc 473d cb39 f53b 8bb9 003d cdb5 a2bd
00000160: 9447 f0bc 0c0c e8bd d485 b73c 07a3 a0bd
00000170: cbf2 293b 3fa8 bfbd b40f cfbc 68dd c5bc
00000180: 6ce1 1ebd a44f 423d 1b8d 84bd 5d70 8abd
00000190: 53d4 c93d d107 53bd a390 273e 2f7e 783d
000001a0: e100 a0bd 65c7 203e 539c b6bd 473e cd3c
000001b0: 85ac 933c 447d 26bd 9a5b ce3d b885 1fbe
000001c0: 008f 04bc 49dd 123d 4b41 0fbe aa3f dbbd
000001d0: 5aa5 3d3d ad4d 27be f355 4e3d 7cd5 05be
000001e0: e561 9c3d 353d 15be 2fb8 99bc dc2f 12bd
000001f0: fe00 ce3d 1564 95bd 2c5c 863c 9938 35bd
00000200: 2e2c 5c3c c168 abbb 6638 3abb e9c5 153d
00000210: 3f56 86bd fa26 fe3d 29fa abbd 0493 b33d
00000220: 7bb4 63bc 9ef0 a33c f9fc d5bd d768 d8bb
00000230: c791 74bd 0728 013d 9735 b43c 2720 e0bd
00000240: f041 753d 30ff 24be 6e82 153d 9cce f13d
00000250: 59ee f7bc 8b82 133d dda8 d1bc 31db 0abe
00000260: 266f 643d 96e2 25be f098 a0ba f499 08be
00000270: 9827 313d e3ab 2dbd d551 39bd 0ea9 a43d
00000280: 10ca b03d 76c9 b3bd e6c8 a8bd 1763 02bd
00000290: 219c 2f3e c9d5 3cbd c7a6 cb3c 5fc5 2f3e
000002a0: 0941 d53d c516 59bd 5044 6c3d 92ba 713d
000002b0: eb63 babd 254b bb3d 2310 1d3c ff62 8bbd
000002c0: 89ac c4bd 637a c6bd 37b3 8dbc af87 15be
000002d0: e722 113e a92b 1e3a 334d 823a ce30 1c3d
000002e0: 987c 5a3d c3be 2cbc 6199 07bc f607 3f3b
000002f0: f976 933c 1933 b3bd 3d63 c1bc 7d77 663d
00000300: 4d36 c0bb 2586 d5bc 7826 88bc 23af 3fbd
00000310: 62ba 90bd 8015 2c3d 93f8 21bd 6c68 cb3c
00000320: 3ae3 5dbd e0a7 673d 50f4 29be 206b 6ebc
00000330: 3aad af3c ed08 21bd f0ec 0c3d 5538 40bb
00000340: 13b3 8dbd 5f87 69bd 6151 44be 723c 753d
00000350: a37e 943c f16a acbc 73fd a0bd cc5e a43d
00000360: 1638 f73b 4966 04be 0f54 c1bc a271 9bbd
00000370: 9eb4 303c f920 99bc 4d3a 803d b08b 213d
00000380: 0112 bb3a a83f 04bd 43bf 6c39 84b2 f23d
00000390: aaf0 dd3c ce69 09bb 15e6 91bd c23b d63c
000003a0: 1c54 993d f637 aabc b615 0cbc 87ab 05be
000003b0: d8ab 83bb a73f f9bc 0a6f a13d cdd3 263e
000003c0: 7585 3d3d 48f7 89bc d49f 24be e221 ad3d
000003d0: 9a36 183d 3443 593e 5346 34bb 585e 863d
000003e0: 9e11 d83d ddbc 723d 6abd 6c3e 2174 2a3d
000003f0: 6d94 cfbc b08a 643d a776 aebc 0cc9 debd
-0.021461213 -0.060677048 -0.030372852 0.11084464 0.10213593 0.09276578 0.1951628 -0.073715225
0.19245663 -0.02215897 0.0468197 -0.038383532 0.04615318 -0.1045224 0.05266742 0.05655042
0.012128829 0.0058078556 0.12500283 0.037303403 0.05226623 0.005836675 -0.050241016 -0.009605537
-0.019174956 0.04962193 0.13965628 0.09982427 0.010733757 0.0898559 0.0346174 0.07313345
-0.50232595 0.6489581 -0.20327024 0.38718978 -0.27450514 0.25654104 0.4629841 0.36583576
0.12598372 -0.11178523 -0.035628475 0.16472185 0.0304196 -0.053713616 -0.35284942 0.29394478
-0.32022053 -0.040336635 0.24680848 -0.66247064 -0.08602163 0.20975348 0.6365254 0.53787124
-0.46327543 -1.1898922 -0.22253509 1.044631 0.66351485 0.9963386 -0.0028260532 0.13970947
0.052713934 0.0005876977 0.0126215285 -0.13085152 0.0040330514 -0.034258556 0.0127032455 -0.04623554
-0.017598081 0.18632258 -0.0170097 0.12657379 0.01855142 0.060020603 -0.15694354 0.10137692
-0.084840395 -0.045830883 -0.07135089 -0.0999232 0.048763495 0.007483696 0.031426948 -0.07944832
-0.029331006 -0.11330423 0.022402681 -0.07843595 0.002593207 -0.09358262 -0.025276043 -0.024153426
-0.038789198 0.047439232 -0.06472226 -0.06759713 0.09854951 -0.051521126 0.16363768 0.060667213
-0.07812668 0.15701063 -0.08916535 0.02505411 0.0180266 -0.040646806 0.10076065 -0.15578353
-0.0080907345 0.035855565 -0.13989751 -0.10705502 0.04630027 -0.16338225 0.050374936 -0.13069719
0.076358594 -0.1457413 -0.018764583 -0.035690174 0.10058783 -0.0729448 0.016401373 -0.04424343
0.013438268 -0.0052309935 -0.0028414964 0.036565695 -0.06559419 0.12409778 -0.08397324 0.087682754
-0.01389801 0.020012196 -0.10448641 -0.0066042948 -0.059709337 0.031532314 0.02199821 -0.109436326
0.059877336 -0.16112971 0.03650134 0.11806986 -0.03026502 0.036013167 -0.025593216 -0.13560177
0.055770062 -0.16199717 -0.001225261 -0.13339978 0.04325065 -0.042400252 -0.045244057 0.08040057
0.0863229 -0.0877866 -0.08241443 -0.03183278 0.17149402 -0.04610232 0.0248598 0.17165135
0.10412795 -0.05300023 0.057682335 0.059015818 -0.09101089 0.09145192 0.009586367 -0.068059914
-0.09603221 -0.09691312 -0.01729737 -0.1460254 0.1417347 0.00060337275 0.000994122 0.03813248
0.053341478 -0.010543528 -0.0082763145 0.0029149032 0.018001067 -0.087499805 -0.02360689 0.056266297
-0.005865848 -0.026064942 -0.016619906 -0.046797883 -0.070668 0.04201269 -0.0395437 0.024830066
-0.05417178 0.056556582 -0.16597104 -0.014551908 0.021444906 -0.039315153 0.03440565 -0.0029330452
-0.06918921 -0.057013866 -0.19171669 0.0598721 0.018126791 -0.021047087 -0.078608416 0.080258936
0.0075445278 -0.12929644 -0.023599653 -0.07590033 0.01078525 -0.01869248 0.0626112 0.039439857
0.0014272333 -0.03228727 0.00022577964 0.118504554 0.027092297 -0.0020967606 -0.07123963 0.026151542
0.07486746 -0.020778637 -0.008550098 -0.13053714 -0.004018288 -0.03042586 0.07882507 0.16291733
0.046269853 -0.016841546 -0.16076595 0.08453728 0.037161447 0.21217042 -0.0027507737 0.065609634
0.10550235 0.059262145 0.2311913 0.041614655 -0.02533933 0.055796325 -0.021296812 -0.108781904

hidden1.bias f4 [32]
00000000: c4c5 5ebd f081 30bd 555a 8dbd d043 36be
00000010: 27f5 fc3d cc93 04be e579 dc3c f76a 86bd
00000020: 4482 cc3d ab27 0a3e 6217 15be c1a2 a93e
00000030: d555 93be 38bf 383e 2e9e 69be 181d 8f3e
00000040: 00c2 f9bc 744d 05be 741f 063d fd38 4cbd
00000050: 5628 c8be be28 473d e3e0 023d d59e 3e3f
00000060: 8efd 34bc f9dc 0abd cb5c 52bd 5886 09be
00000070: b6f0 e73c e215 173d 9dc5 b13e 2868 c03e
-0.054387823 -0.043092668 -0.06901995 -0.17799306 0.123514466 -0.12947005 0.026913593 -0.06563371
0.09985784 0.13491695 -0.14559701 0.33131984 -0.28776422 0.18041694 -0.22814247 0.27951884
-0.030488014 -0.13017827 0.03274484 -0.049859036 -0.39093274 0.04862284 0.03195275 0.7446111
-0.01104678 -0.033902142 -0.051358026 -0.13430154 0.028313022 0.036886103 0.3472108 0.37579465

hidden2.weight f4 [32, 32]
00000000: 1eb9 7abd 56b3 edbc 040c de3c abee 8f3a
00000010: f8d1 a63d 80e0 5ebb 7842 9cbd a780 79bc
00000020: 1704 ba3b 8e3d e63b 971a 96ba bd58 d03c
00000030: aab5 093c 8a45 0ebd 7df8 a73c 3964 04bd
00000040: 3900 51bc 7ed7 a3bc 646c 943d 2e4c e9bc
00000050: ccec ec3c b2eb acbd 583c 49bc 6184 743c
00000060: 03ef a93c 7b0e a43c 5598 743d da1e 84bd
00000070: 3ba1 333d b59a 36bc 8b20 8cbd 763d c13d
00000080: f718 513d e127 eabc 608e 753c 458c 6bbd
00000090: 39c5 8b3d 9799 2cba 277c c939 6c08 f23c
000000a0: db9b aa3c 1ee8 ff3d abac babc a388 af3d
000000b0: 16c5 a73d 6a93 16be 78b9 813d 7e5b f83d
000000c0: 66ce e8bd 2932 8cbd 3c00 55bc 9686 373d
000000d0: f27b ae3b 9e35 1a3d 80e2 e63a 131b f43d
000000e0: 6883 273d fdbd fe3c 6df2 c03c f6ee bebc
000000f0: 621a 2f3e e459 6ebd e2de cb3d a8e6 2cbe
00000100: f100 9dbd be97 753b ca9c 233c ef2b 74bb
00000110: 4aad 843d 8db2 663d b878 5ebd aa5f 41bb
00000120: 7bca fe3c e46b eabc 010f ed3c 6fa6 623d
00000130: be0f 2a3d a177 7e3d 36ae f0bc a4e9 f13b
00000140: 9f95 84bd 0d7b 74bd 1c83 94bc 7f36 51bc
00000150: 2dbb 8f3c 827a 3b3d dfba d03c 9ab5 91bb
00000160: 6ee9 2c3d 3571 b73c 1659 a13d 8e75 593d
00000170: 1bab 813d f8b7 f83c e3bf 163d 3e69 70bd
00000180: ba5c c03d fd91 54bc e2b5 1c3e 54ae 133d
00000190: c612 b33b 8b00 f137 f909 ac3d 8a07 41bd
000001a0: 9f8b 6d3b 8f80 8f3d 370e 553c 916a 60bb
000001b0: f11b 4d3c 6119 3bbd 042e d53c 07a2 873d
000001c0: 614f 36bc 1519 a43b 5910 23bd e0b6 10bd
000001d0: 7334 893d 473b 34bc b0a3 4fbd 7cac 893d
000001e0: fa97 e7bb 9bd4 88bd a3be 2d3d 8e38 483b
000001f0: 0e51 ab3d f20e b03b d815 253d b206 8ebd
00000200: 17f0 9dbd f4ac b73c 4eef b0bc 2681 ea3c
00000210: ce12 923c b261 013e 70e1 5bbc 7922 853d
00000220: 31ba c4bc a329 1fbe 1235 70bd b7fc a6bd
00000230: b3d9 a6bd e3ac ef3d 57f9 65bd 6376 23be
00000240: 017b 6abc 559e 64bd b009 773c 486f 173c
00000250: 9613 14bd 5aae 8d3d 49ef a63d d037 20be
00000260: fde3 533d 08f2 f23d c8cb b6bc 1ce6 cdbc
00000270: 86ac 6abd 46d6 d7bd 6305 06be 1b6b 7c3e
00000280: 14fb 31bc a0c2 60bd ba97 833b 6641 df3c
00000290: 2579 56bd 1263 343d 472d 873c 9b04 bdbd
000002a0: c34c 1d3c 345c 863c 9971 c53d 9178 28bc
000002b0: 4b2d 6fbd 4b20 57bc 7e63 31bd d929 5ebd
000002c0: ea90 3ebd 5193 40bc a030 7cbd d022 61bd
000002d0: 0091 943b 4efb 54ba ea3d 953c 582b 683c
000002e0: e695 913d f378 083d a7ef 43bc 97d5 85bd
000002f0: 3a3c 0e3d e75f 5a3d ccea 78bc 6756 fcbc
00000300: ada9 21bd 4508 343e 1562 ed3c c3e4 71bc
00000310: 7e55 1e3e 316e ea3d 053e b3bb 57bb 5e3c
00000320: e4de 4b3e 4e26 973e e40f cfbd 8f65 49bd
00000330: 69c5 7c3d a811 c2bd 31e1 56bd bed6 a53e
00000340: 809f 1fbd 6b5a fbbd 7646 a13e 946e 6c3d
00000350: 134d 583a 2edf 44bd 200c 20bd 94a4 ac3e
00000360: 46d2 0fbd eff9 503d aea5 59bd edd6 743d
00000370: ad6b 93bc 40ec 96bd 3640 a13e aa77 cdbe
00000380: 1601 a63d d1e7 28be 9d36 9abd a6e0 56bd
00000390: 7db6 843d 081b 3dbe 3185 47bd 7788 143e
000003a0: b0ab cabe a243 20be 48c5 a6bd 085d 16be
000003b0: 0e1f 353d 9b43 bf3d 4ef7 e43d 47b3 ddbe
000003c0: bab5 46be 7292 0f3e 4210 39be 20ef d13d
000003d0: ea69 523e 6c4a a2bd 8f37 763d cfe9 c4be
000003e0: 513e 433e 02fd c23d e0b6 75bc 2a34 33bd
000003f0: 6717 4d3d 8b67 37bd d688 81be c2b0 cd3d
-0.061211698 -0.029016178 0.027105339 0.0010981163 0.08145517 -0.0034008324 -0.076298654 -0.015228427
0.005676757 0.007026381 -0.0011452016 0.025432939 0.0084051285 -0.034734286 0.02050423 -0.032322142
-0.012756401 -0.020000216 0.07247236 -0.028478708 0.028921507 -0.08443393 -0.0122824535 0.01492414
0.020743852 0.020026436 0.059715588 -0.06451197 0.043854933 -0.0111452835 -0.068421446 0.09435551
0.0510492 -0.028583469 0.014987558 -0.05750682 0.068247266 -0.0006584166 0.00038430208 0.029545031
0.02082627 0.12495445 -0.022787413 0.08570983 0.08191888 -0.14704672 0.063342035 0.12126826
-0.113674924 -0.06845505 -0.013000544 0.044806086 0.005324834 0.03764879 0.001761511 0.119192265
0.040896803 0.031096453 0.023553098 -0.023307305 0.17099908 -0.058191195 0.09954621 -0.16884863
-0.07666195 0.0037474479 0.009986112 -0.0037257632 0.06478365 0.056322623 -0.054314345 -0.0029506483
0.03110241 -0.0286159 0.028937818 0.055334505 0.04151892 0.062125806 -0.029379945 0.0073825885
-0.064738505 -0.059687663 -0.018128924 -0.012769341 0.017545307 0.04577113 0.025479732 -0.0044466974
0.042214803 0.022392849 0.0787832 0.053090625 0.06331464 0.03036116 0.03680409 -0.058694117
0.09392686 -0.012974259 0.15303758 0.036054924 0.0054648845 2.8729692e-05 0.0840034 -0.04712633
0.003624655 0.070069425 0.013003877 -0.0034243206 0.012518869 -0.0456785 0.026022919 0.06622701
-0.011127324 0.005007873 -0.039810512 -0.035330653 0.06699457 -0.011000461 -0.050693214 0.06722352
-0.0070676776 -0.06681176 0.042418133 0.0030551287 0.08365069 0.0053728754 0.040304035 -0.06934871
-0.07711809 0.022421338 -0.021598484 0.028626036 0.017831232 0.12634924 -0.013420448 0.06500716
-0.024014564 -0.15543227 -0.05864436 -0.0815367 -0.081469916 0.117028974 -0.056145992 -0.1596313
-0.014311553 -0.05581506 0.015077993 0.00924284 -0.03615149 0.069180205 0.08151109 -0.15646291
0.0517311 0.1186257 -0.022313967 -0.025134139 -0.057293437 -0.10538916 -0.13087992 0.24650232
-0.010863084 -0.05487311 0.00401589 0.027252864 -0.052361626 0.044039793 0.016501082 -0.09229394
0.009600821 0.016401388 0.09640808 -0.0102826515 -0.058392804 -0.013130258 -0.043307774 -0.054239128
-0.04652492 -0.011753873 -0.06156981 -0.05496484 0.004533887 -0.00081246055 0.018218 0.01417049
0.07108669 0.03331847 -0.011958993 -0.0653488 0.034725405 0.053314116 -0.015192699 -0.030802919
-0.039468456 0.1758128 0.028977433 -0.014764014 0.154623 0.114467986 -0.00547004 0.01359447
0.19909245 0.29521412 -0.10110453 -0.04916912 0.061711702 -0.09476024 -0.052460853 0.32390398
-0.03897047 -0.12273105 0.3149907 0.057722643 0.0008251231 -0.048064403 -0.039074063 0.33719313
-0.03511264 0.051019605 -0.05313652 0.05977528 -0.01799568 -0.0736928 0.31494302 -0.4013036
0.08105676 -0.16494681 -0.07529948 -0.052460335 0.064801194 -0.18467343 -0.048711006 0.14505182
-0.39584112 -0.156508 -0.08143097 -0.14683926 0.04421907 0.093390666 0.11179982 -0.4330084
-0.1940526 0.14020708 -0.18072608 0.102506876 0.20548216 -0.07924351 0.06011158 -0.38459632
0.1906674 0.09520914 -0.014997214 -0.04375092 0.050071146 -0.04477648 -0.2529971 0.100434795

hidden2.bias f4 [32]
00000000: c1ed f2bc 1963 673c c905 1ebc 1e3a 10bd
00000010: 3cd3 67bc 6487 d9bb 6080 883e 7610 c4be
00000020: 6b8e 9d3c 3906 cdbb dd39 c4bb da63 b13e
00000030: 85ac 7abd f3a4 dabe eec1 03bd 9a08 a8be
00000040: c3db 33bd ddd9 613e 841b 503e 66b8 b5be
00000050: c208 b83d fc82 273d 803d 82bb 9c5d 143d
00000060: 883f c83d e1c4 edbe 0ea1 bd3e b27b 523c
00000070: 9678 30bc 2afe 173d 3e16 843b 3bc2 a1be
-0.029654386 0.014122748 -0.009644934 -0.035211675 -0.014149483 -0.0066384543 0.26660442 -0.3829381
0.01923295 -0.0062568453 -0.005988343 0.34646493 -0.061199684 -0.4270397 -0.032167368 -0.32819062
-0.043910753 0.22055764 0.20322996 -0.35492247 0.089860454 0.0408964 -0.0039746165 0.036222085
0.097777426 -0.4643927 0.37036937 0.012846874 -0.010770937 0.037107624 0.004030972 -0.315935

output.weight f4 [1, 32]
00000000: 050a 36bb 6557 99b9 6c20 59ba 355d 003a
00000010: da3d 0fbb 0ab6 953a ce2b 623a 3348 8ebd
00000020: 57b5 abba 7609 d939 52bc 183a 9b70 c93d
00000030: a3fc 67b9 19f2 99be 350f 503a 9716 febd
00000040: a149 d239 51ec 0dbb ae47 203a bbd3 21be
00000050: 04c4 36bb b686 eaba 476e bcb8 a036 2d3b
00000060: 69e4 64ba f082 7cbe 5c62 553d 693d 1abb
00000070: 9b9f 09bb c008 bbb7 84f0 0d3b b4fe 0bbe
-0.0027776968 -0.00029247548 -0.00082827243 0.00048967014 -0.0021856935 0.001142205 0.0008627743 -0.06947365
-0.0013100308 0.00041396514 0.0005826402 0.09835931 -0.00022123991 -0.30067518 0.00079368363 -0.124066524
0.0004010918 -0.0021655748 0.0006114197 -0.15803425 -0.002788783 -0.001789293 -8.985079e-05 0.0026430264
-0.00087315455 -0.24659324 0.052095756 -0.0023535138 -0.0020999673 -2.2296212e-05 0.002165825 -0.1367138

exp_avg f4 [32, 2]
00000000: 15bc 1b3a 8a83 e63a d440 b23c 3d18 4e3b
00000010: 6b03 3bbd 937f 7e3c 90d6 013d 4a36 f53c
00000020: bc92 ca3c c45d d03c 4c74 debc c425 e63a
00000030: beef 503c 5340 3f3c 00bb beba 71c8 f03a
00000040: 2efc b1bb 2ba9 edbc cdd6 f2bc 541a 4a3c
00000050: 80cc 42bd 8f18 7b3c 82da 25bd c3e0 8ebc
00000060: 7323 efbc 9dac 0d3c a5b7 b13b 1b49 113d
00000070: 1a4e e13c 172b 053d c5aa 06bc ca9f b33c
00000080: 6606 32bc b1a3 63bc acb5 2fbc b26c acbc
00000090: 84d5 29bd cc66 333c 6ff8 d53b 7d9b 71bc
000000a0: 084e ffbc bbdd 91bc f9bf bd3c 8afd 9fbc
000000b0: 6d1d 50bc b0af 113c 3aae 9dba cb28 cb3c
000000c0: 11e6 3a3b 8504 743c f020 40bd a92b c4bc
000000d0: d69b 003d 4bc8 b23c a0f0 1abb f9c5 013c
000000e0: 0e7d d83b fd35 67bc 27a4 b33b 1bec a0bc
000000f0: 41d3 433a ded6 1bbc 9a52 ad3c f506 a53c
0.0005940807 0.0017586809 0.021759428 0.0031447553 -0.045657557 0.015533346 0.031698763 0.029933114
0.024728172 0.025435336 -0.027155064 0.0017558862 0.0127524715 0.011673051 -0.001455158 0.0018370283
-0.0054316735 -0.02901133 -0.02964344 0.012335379 -0.047558308 0.015325679 -0.04049159 -0.01744116
-0.029191708 0.008647111 0.0054235035 0.03547011 0.027503062 0.032511797 -0.008219426 0.02192678
-0.010865783 -0.013894008 -0.010724466 -0.021047924 -0.04146339 0.010949802 0.0065298597 -0.014746544
-0.031165138 -0.017805925 0.023162829 -0.019530077 -0.012702328 0.008891985 -0.0012030073 0.024799725
0.0028518478 0.014893656 -0.04690641 -0.0239466 0.031398617 0.021824023 -0.0023641959 0.0079207355
0.0066067046 -0.014111993 0.005482215 -0.019643834 0.0007470139 -0.009511678 0.021157552 0.020144919

exp_avg_sq f4 [32, 2]
00000000: 3d63 5e3b f72c b73b 0324 613b 0e2a be3a
00000010: 3146 0d3d 5366 133d a63e 833c b76d 1b3c
00000020: 92aa 9e3b d634 f13b db66 513c a437 603c
00000030: 7f42 c13b a628 183c a94a 5e3b 55f2 c23b
00000040: 6dac 293b 391a b13b a4ce fb3b 8f16 233c
00000050: 88d5 163d 22c9 233d 506c 8c3c 3dd5 f33c
00000060: fb44 1a3c 7a37 2f3c 8730 153b 6881 7f3b
00000070: d203 423c d6fb 073c ef82 0e3c 3650 4f3c
00000080: 4089 343b 040d db3b 169c 033b 2023 833b
00000090: 42b1 a23c 3ca4 bf3c dba9 223c 5931 173c
000000a0: 7e9e 053c 03d0 813b 558c 183c 2c62 213c
000000b0: 1221 0a3c d0ae 4d3c 05be 7c3b b549 093c
000000c0: d885 0f3b fa59 c53b 0b93 a03c 169d 853c
000000d0: 9d0d 2b3c fa25 4c3c 943a f23b 6782 d73b
000000e0: eac9 f63a 71dd 3a3b 7ada b23c dc6b ba3c
000000f0: e81b 803a 5dcd 403a 97ac a43b 1489 fb3b
0.0033933662 0.005590077 0.003435374 0.0014508383 0.034490768 0.035986256 0.016021084 0.009486607
0.004842111 0.007361035 0.01278087 0.013685141 0.0058978195 0.009287035 0.0033919013 0.0059492984
0.0025890127 0.0054047373 0.0076845456 0.009954109 0.036824733 0.039986737 0.017141491 0.029764766
0.00941586 0.010694379 0.002276452 0.0038987044 0.011841731 0.008299788 0.008698209 0.012653401
0.0027547628 0.006684901 0.0020082048 0.00400199 0.019859914 0.023393743 0.009928192 0.009228074
0.008155463 0.0039615645 0.0093108015 0.009850066 0.008430736 0.012553886 0.003856541 0.0083793895
0.0021899845 0.006022689 0.019601366 0.016310256 0.010440257 0.012460226 0.007392237 0.0065768245
0.0018828486 0.0028513337 0.021832693 0.02275651 0.0009773942 0.000735482 0.005025457 0.007676253

exp_avg f4 [32]
00000000: b05b 25bc 0887 6dbc 2c69 4abc 0b8b e43c
00000010: 1388 a73c bfd0 87bb 63d5 97bc 7954 4ebc
00000020: 4f88 2cbc d199 9abb a444 27bc 7171 26bd
00000030: f995 84bb c749 163c cd76 b93c 1e39 d8bc
00000040: c637 7b3c e65d 1d3c 7cd2 09bc 475e a93c
00000050: 2df1 8c3c e248 cabc 5bb2 df3b 9699 053c
00000060: c794 d6ba 6ca4 0abd 476c ef3c e8cf 8cbc
00000070: 7cd6 6ebc 1b78 f23c 8e14 08bc 0867 953c
-0.010092661 -0.014497526 -0.0123541765 0.027898332 0.020450627 -0.0041447575 -0.018534368 -0.012593382
-0.010530545 -0.0047180434 -0.010209236 -0.04063553 -0.0040461984 0.009172863 0.022639656 -0.026394423
0.015333122 0.009604907 -0.008412 0.020674838 0.017204845 -0.024692956 0.0068266816 0.0081542935
-0.0016371243 -0.03384821 0.029226435 -0.017188981 -0.014577504 0.029598286 -0.008305682 0.018237606

exp_avg_sq f4 [32]
00000000: eef7 523b e76d 043b efd7 a53c be0b 073c
00000010: d3d3 833b ccef eb3b 35dd a53b 85bb 5c3b
00000020: 86e5 3a3b 3d7b af3b 4a51 b53c f591 743c
00000030: 3a5f c03b b6f9 1e3b faaa d83b 092c fc3b
00000040: 0a72 8c3b e49e 273b 70f6 503c ad90 c83b
00000050: 2a7f 4f3b 85a7 0b3c 431a 733b 7622 8b3b
00000060: 530d 533b 062c 2a3c 2ed0 de3b d391 ac3b
00000070: 1417 0f3b 5fbb 6b3c 69e7 543a d315 873b
0.0032191235 0.0020207108 0.020244567 0.008242546 0.004023054 0.007200217 0.0050617703 0.0033681106
0.0028518154 0.0053552673 0.022133488 0.014927377 0.005870727 0.0024257726 0.006612179 0.007695679
0.0042860555 0.0025576884 0.012754068 0.0061207623 0.003166149 0.0085238265 0.003709451 0.0042460514
0.0032203987 0.010386473 0.0067997193 0.005266407 0.0021833824 0.0143879345 0.0008121641 0.0041224747

exp_avg f4 [32, 32]
00000000: 2743 213b 979b 96bb ab1b cc3a 7306 3f3b
00000010: 7a89 9339 b1d6 a03a 177f 2ebb 1219 223b
00000020: f752 f1ba 97be 9239 d046 8d3a b988 ceb9
00000030: 90c9 133a e69f 223b 2bd4 1f3b e70b 193b
00000040: 87ea 473b 332b 853b ec85 353a 0cc9 4ebb
00000050: 640b 9a3b e9f3 92bb 9690 58bb a757 243b
00000060: b614 f2ba 83db 8aba 4662 b93a b323 843b
00000070: 8bff 98bb f6eb 53bb 54af 9abb 2cb5 e039
00000080: e636 6d3b 1489 813b 0b28 cabb 2a0c 2b3b
00000090: 0ae0 613b ca0e bbbb 4ec6 3abb 3587 653b
000000a0: 5938 4eb9 bc01 acbb d937 cdbb 5390 a8bb
000000b0: ae41 afbb 0aea b3ba d4a3 0f3b 241c babb
000000c0: 82e2 d4ba 3d13 aabb 90da c1bb 9ad6 bb3b
000000d0: 1ff4 a0bb 0eab 0b3b a9d4 a8bb f139 b5ba
000000e0: 44f1 89bb d86e 72bb 6739 573b e5aa c0bb
000000f0: f596 3c3b d912 c63b 96b4 553b ef48 633b
00000100: e783 4abb 4bc5 1dbb 8b49 853b 10eb 51bb
00000110: ef49 67bb 866d 723b ab36 fd3a c4c7 3fbb
00000120: 3d85 f13a 7687 4c3b d5ec 883b 2607 9d3b
00000130: dbbf 533b aaa5 63ba e9ca 3abb 53f7 1a3b
00000140: f176 a838 f3f4 8f3b a974 7c3b e97f 31bb
00000150: fadb 763b 21a1 30b9 bf8a 583b 4371 9bba
00000160: f4da 013b 0770 6d3b c8d8 65bb a18e cf3a
00000170: 95db 1fba dffc 28bb 4887 e5b9 7a2d 6dbb
00000180: 58d3 efbb 8206 e73a c0cd 103b 31ab dcbb
00000190: 247d 81bb 5e4b 243b 055d da3b e00c ecbb
000001a0: d88e 7e3b e4e2 763b 899d 433b ea80 b53b
000001b0: b6f1 613b f7a0 63bb 3f23 c2bb f616 093a
000001c0: 8e11 98bb d4e7 21bb b325 6e3b f50b 4db9
000001d0: 181a a7ba 8087 883b 1445 163c 9f40 81bb
000001e0: 4125 b43b 8fc4 aa3b 9927 adbb 1f9a f7ba
000001f0: 56a7 823b 6fdb e138 2ce6 8b3b e5fb 88bb
00000200: 0f0a 103b 3d28 933b 032a 80bb 6391 993b
00000210: 35cd aa3b 420d 6cbb a85c e83b 9f3c e03a
00000220: 2bfe c8bb 21aa bcba 11d2 79bb 14ee 98bb
00000230: 979c faba 1d72 9e3b f81d 9a3b a257 3a3b
00000240: 27b8 f8bb 7eb0 9abb fae3 49bb 4520 d3b9
00000250: 5375 9bbb 2cb3 323b 3f41 e838 c874 dd3b
00000260: ac15 4e3b 4aae 99bb 534c ab3b 38bf 543b
00000270: 9804 e039 c2d2 09bb af17 d3ba 2b7e b13b
00000280: 9e04 2cbc bae0 b13b 8b87 0c3c aa00 1d3b
00000290: 7a66 c43b f138 ea3b e334 763c 946c 34bc
000002a0: 06ef 17bc eb1a 203c 566f 203c 5dd2 babb
000002b0: 6a0b 173c 2f78 cf3b b292 193b 3a0e 363c
000002c0: cf5b 67bc ee89 9fbb dc27 1f3c d827 18bc
000002d0: 7916 64bb 2731 153c 83e2 723c 49be 303c
000002e0: 7e43 5f3c 7d19 2abb cc6b d63b 23c0 233c
000002f0: e244 a13b 2dbd 2fbc ff59 983a 33ff f73b
00000300: 7285 b9bb d734 033b 7622 45b9 ef81 b1bb
00000310: 47ee 30bb e45a 0a3a ea49 c23b 5998 b7bb
00000320: 049e 583b 0a2e f73a 0a98 e039 9277 823b
00000330: c75e c83a 85b7 59bb e8c0 9bbb ef5e deba
00000340: 775c a8bb a979 3dbb 8af2 ad3a 121b 083b
00000350: b1b9 02bb b05d 6c3b adbf f03b 8624 75bb
00000360: cf45 8a3b 47ef 7b3b fc68 83bb 76a7 85bb
00000370: 729e 5e3b d7e6 333b 86b8 7d3b 2824 3ebb
00000380: 0abc 07bb 489a b1b8 417f 5d3a abeb 1bbb
00000390: 2212 d7ba 18d1 813a afd1 b63a 4649 03bb
000003a0: 9d3f ed3a 6125 9e3a 4475 903a 89a6 133b
000003b0: 6617 953a 9841 c9ba 4b37 0bbb eb0f 09ba
000003c0: a869 29ba 91bf 7f39 f321 a73a 979a ed39
000003d0: 6b14 b539 ec0c 5e3a 06d6 3f3b eb5a 02bb
000003e0: 9f6e b83a aa17 f83a 9948 09bb 2a27 c0ba
000003f0: e7a4 7e3a 1471 553a 567d b43a e218 ebba
0.0024606676 -0.0045961845 0.001557221 0.002914813 0.00028140453 0.0012271014 -0.0026626044 0.0024734181
-0.0018411566 0.0002798929 0.001077855 -0.00039393248 0.000563764 0.0024814545 0.0024387937 0.0023353042
0.003050478 0.0040639876 0.0006924558 -0.0031552939 0.004701065 -0.0044846428 -0.0033045164 0.002507666
-0.0018469307 -0.0010593984 0.0014143668 0.004032576 -0.004669135 -0.0032336689 -0.004720608 0.00042859593
0.0036196052 0.0039531086 -0.0061693243 0.002609978 0.0034465813 -0.00570855 -0.0028499546 0.0035023217
-0.00019666682 -0.00524923 -0.006262761 -0.005144158 -0.005348406 -0.0013726365 0.0021917718 -0.005679624
-0.0016241821 -0.0051902817 -0.0059159473 0.0057323696 -0.004911914 0.0021311673 -0.005152304 -0.0013826472
-0.0042096693 -0.0036992338 0.003284061 -0.005879747 0.00287765 0.0060447273 0.0032608858 0.0034680923
-0.0030901374 -0.0024073895 0.004067605 -0.0032030977 -0.003529187 0.003699155 0.001931866 -0.0029263357
0.0018426549 0.003120867 0.004178623 0.004792112 0.00323104 -0.00086840487 -0.0028502292 0.0023645952
8.033019e-05 0.004393214 0.0038521683 -0.0027084297 0.0037667737 -0.00016844693 0.0033041683 -0.0011859316
0.0019814344 0.0036230104 -0.0035071839 0.0015835353 -0.0006098089 -0.0025785489 -0.00043779076 -0.0036190436
-0.0073188953 0.0017625841 0.0022095293 -0.006734275 -0.0039516855 0.0025069336 0.006663921 -0.0072036833
0.0038842466 0.0037671858 0.0029848537 0.0055390494 0.0034476346 -0.0034733394 -0.005924612 0.00052295567
-0.0046407646 -0.002470483 0.0036338388 -0.00019554778 -0.0012748865 0.0041665435 0.009171743 -0.003944471
0.005497605 0.00521142 -0.0052842614 -0.0018890536 0.003987233 0.00010769709 0.004269382 -0.004180419
0.0021978652 0.0044908808 -0.003911258 0.004686521 0.005212451 -0.0036018644 0.0070911236 0.001710791
-0.006133815 -0.0014393964 -0.0038119594 -0.004667053 -0.0019120154 0.0048353807 0.0047032796 0.002843358
-0.007590312 -0.0047207465 -0.003080605 -0.000402691 -0.0047442107 0.002726744 0.00011074775 0.006758306
0.0031446023 -0.0046899663 0.0052276044 0.0032462608 0.00042728032 -0.0021030162 -0.0016105081 0.0054166517
-0.010499148 0.005428401 0.008577238 0.0023956695 0.0059936615 0.007147901 0.015027258 -0.011012215
-0.009273296 0.009772043 0.00979217 -0.005701347 0.00921903 0.0063314657 0.0023433384 0.01111179
-0.01412101 -0.0048687374 0.009714093 -0.009286843 -0.0034803434 0.009105957 0.014824512 0.010787555
0.013626931 -0.0025955134 0.006543612 0.009994539 0.0049215415 -0.010726255 0.0011623501 0.007568264
-0.00566166 0.0020020509 -0.00018800222 -0.0054171006 -0.0026997493 0.0005277826 0.0059292214 -0.005602878
0.003305317 0.0018858325 0.00042837887 0.003981539 0.0015287035 -0.0033220958 -0.004753221 -0.0016965548
-0.005137976 -0.0028911626 0.0013271135 0.0020768088 -0.0019947106 0.0036066584 0.0073470683 -0.0037405803
0.0042197476 0.003844218 -0.004010318 -0.004078801 0.0033968952 0.0027450824 0.003871472 -0.002901325
-0.0020711445 -8.468755e-05 0.0008449443 -0.0023791592 -0.0016408602 0.0009904234 0.0013947989 -0.0020032688
0.0018100623 0.0012065583 0.0011021276 0.0022529683 0.0011374771 -0.0015354631 -0.0021242674 -0.0005228507
-0.00064625824 0.00024390059 0.0012751207 0.0004531934 0.00034538223 0.00084705534 0.0029271855 -0.0019890617
0.0014071054 0.0018927951 -0.0020947813 -0.0014660109 0.00097139034 0.0008142155 0.0013770263 -0.0017936493

exp_avg_sq f4 [32, 32]
00000000: 4ec3 9c39 0141 e939 c7d7 6d39 e14a 7939
00000010: de45 0d39 f35b 4139 56b0 d839 cfad 9c39
00000020: 5f69 0e39 813a 2939 5dc5 6139 79c7 7339
00000030: a209 2639 bd9a 0739 bbab 3e39 8297 6d39
00000040: fb37 b839 60a2 e939 cd7c 4539 9b08 8839
00000050: 8fe7 fa39 7196 d839 fe33 ee39 eddb 3639
00000060: 2ff9 9339 da13 2139 fbf8 2d39 f394 ae39
00000070: 9c98 db39 563e 8f39 ae63 d339 5a1b 1f39
00000080: eef8 6f38 d535 b638 947f b738 88bb b037
00000090: 14a1 0e38 a223 9f38 2645 9238 5e59 7138
000000a0: c69c be36 c468 8538 88e4 b838 9fdd 8e38
000000b0: 6d65 8838 b6f8 a036 4d06 6337 6a07 9e38
000000c0: 6890 6d38 df29 dc38 e74e a538 9f96 a338
000000d0: bdb4 d738 e1b3 8238 687d e538 4dc6 4837
000000e0: e499 9e38 489e 0338 f807 e537 5781 af38
000000f0: 3ca1 8938 8bc0 b038 5cee 8238 ee0a 1738
00000100: 1c66 2139 d378 2039 27be 0939 8c26 3439
00000110: c6e4 1339 8566 da38 1411 3639 5af3 1539
00000120: 4ea9 1d39 c9a9 c638 67b9 1039 196a 3b39
00000130: ddb6 c338 e1ab 0339 7136 1e39 ed1a 3739
00000140: 3b34 3139 f72f 4539 2c4d f838 8596 2339
00000150: 74bf 2239 1ee4 3439 e230 3039 1f64 3039
00000160: e51b 0739 30cc 1739 70d9 2639 5c4e 4b39
00000170: fd84 2539 812e 4439 27ac 2339 415e 2039
00000180: 92b4 0c3a 1380 543a 0dce d039 e8a9 003a
00000190: 1303 c539 c03a a939 caa1 283a 6564 0a3a
000001a0: 2c53 a839 d7c1 6339 6ce6 bb39 587b 0b3a
000001b0: e98e 6639 9d3f 6f39 8f32 ce39 fd5e a739
000001c0: ec90 483a 165e 643a 4239 9739 3d57 cb39
000001d0: 8e19 683a 80af 3b3a eb20 443a 61b2 ba39
000001e0: 1935 d939 85c2 bf39 b795 d839 2c6c fc39
000001f0: 6a6b 393a 06fd d239 08ea 2e3a cee0 db39
00000200: 1ad0 103a f141 b439 6373 563a 3139 273a
00000210: 731e 223a f738 313a 09ba 293a 0dab 003a
00000220: d959 283a c96e d739 dfd5 573a a912 3f3a
00000230: da02 e739 a017 033a 7dc7 183a 6216 333a
00000240: e854 403a 18f5 5b3a 9f85 283a dfc0 013a
00000250: a28c 473a a466 1739 671c 093a 78ab 3b3a
00000260: 9353 e139 3689 203a 08d8 2b3a ca74 4a3a
00000270: 5efd 6b39 80a8 393a ec2c cb39 58aa 2b3a
00000280: daa5 ad3a 6b5d 103b cdae 7f3a 7337 3b39
00000290: 76da 2d3a e4c2 3c3a 6586 313b 1f3a c23a
000002a0: dbed 723a fece 713a 913f 8b3a defe 753a
000002b0: c11e 553a c88c d839 7964 f138 59be bf3a
000002c0: e658 2b3b 75c9 133b 0264 7c3a ab55 873a
000002d0: d533 163b a7ab 173b e179 2b3b 5081 aa3a
000002e0: 539d 0d3b da32 3339 cb08 133a 36ba a63a
000002f0: e5c0 063b 7d13 b73a 7672 db3a 43aa 683a
00000300: 60ac 223a 97ec 6f3a 4678 c539 b820 0a3a
00000310: 024c b039 51e4 9639 7286 6e3a 166f 233a
00000320: 5373 c839 6729 7f39 6c63 b539 914c f939
00000330: 1d2a 7439 978b a539 3be3 db39 0071 e639
00000340: fa0a 733a b883 713a 20b0 9639 d4b7 ff39
00000350: 3700 7d3a 7fda 6e3a bcef 663a 8453 f039
00000360: 2143 133a 3cac af39 48d0 d239 868e 293a
00000370: be1f 673a e74b 0a3a 90a2 5c3a a69e cb39
00000380: 3125 1e39 4f31 6139 9d36 c238 7769 0039
00000390: 0da8 ad38 191d 8f38 8b73 6839 14db 1f39
000003a0: cd7e b638 b6b4 6c38 2401 b838 96e2 f738
000003b0: 2074 6038 c471 8b38 7e25 ca38 6e41 c738
000003c0: 8565 6b39 79a3 6739 b236 9338 078f d738
000003d0: 8cee 6a39 eef7 6c39 a04c 6739 cc23 d838
000003e0: 71aa 1139 84b3 a538 127a c838 9ad7 0f39
000003f0: 5626 5d39 1121 f038 c0ab 4b39 e7c5 c838
0.00029900152 0.00044489655 0.00022682465 0.00023774385 0.00013472835 0.00018440168 0.0004133011 0.00029884136
0.00013581429 0.0001613889 0.00021531196 0.00023248595 0.00015834582 0.00012932248 0.00018183787 0.00022658522
0.00035136924 0.00044562202 0.00018833876 0.00025946353 0.0004785624 0.00041310818 0.00045433635 0.00017438801
0.0002822368 0.00015361552 0.00016591318 0.00033298842 0.00041884638 0.0002732153 0.00040319323 0.00015173611
5.7213874e-05 8.688463e-05 8.749883e-05 2.1068161e-05 3.4005454e-05 7.588348e-05 6.9747024e-05 5.7542107e-05
5.680692e-06 6.361448e-05 8.816371e-05 6.812368e-05 6.5038774e-05 4.7973253e-06 1.3531721e-05 7.535408e-05
5.6639692e-05 0.000104982166 7.88251e-05 7.800501e-05 0.00010285664 6.232388e-05 0.0001094293 1.1967099e-05
7.5626915e-05 3.1380245e-05 2.7302638e-05 8.368742e-05 6.562701e-05 8.428198e-05 6.243281e-05 3.6011385e-05
0.00015392195 0.000153038 0.00013136175 0.00017180498 0.00014104237 0.00010414146 0.00017363235 0.00014300403
0.00015035758 9.473001e-05 0.00013801978 0.00017873234 9.3323855e-05 0.00012557163 0.00015088335 0.0001746227
0.00016899493 0.00018805252 0.00011839936 0.00015600964 0.00015520846 0.00017251118 0.00016802878 0.00016821966
0.00012884995 0.00014476548 0.00015911995 0.0001938878 0.00015785168 0.0001870934 0.00015609023 0.00015293901
0.0005367483 0.0008106243 0.0003982637 0.00049081305 0.00037577059 0.00032277964 0.00064328 0.0005279242
0.00032105425 0.00021720618 0.00035839097 0.0005320809 0.00021987747 0.00022816514 0.0003932905 0.00031923494
0.00076509896 0.00087115297 0.00028843625 0.00038784175 0.00088539056 0.00071596354 0.0007481712 0.00035609587
0.00041429026 0.00036575287 0.00041310277 0.0004814578 0.0007073196 0.00040242838 0.00066724466 0.00041938428
0.00055241736 0.00034381406 0.0008180646 0.00063790666 0.0006184347 0.00067605026 0.000647456 0.0004908301
0.000642208 0.00041090537 0.00082334684 0.00072888524 0.00044061878 0.0005000774 0.0005828066 0.00068316434
0.0007336871 0.0008390709 0.00064286025 0.00049496995 0.00076122035 0.00014438719 0.00052303675 0.0007159035
0.00042977612 0.00061239616 0.00065553235 0.00077230914 0.00022505733 0.00070822984 0.00038752647 0.00065485155
0.001324828 0.0022028338 0.00097535254 0.00017854366 0.00066319795 0.0007200672 0.0027088162 0.0014818347
0.00092670106 0.00092242646 0.0010623803 0.00093839865 0.0008129888 0.0004130362 0.0001151049 0.0014628872
0.0026145517 0.0022550498 0.00096279394 0.0010325214 0.0022919078 0.0023143084 0.0026165175 0.0013008509
0.0021608665 0.00017089714 0.0005608915 0.001272029 0.0020561751 0.00139676 0.0016742486 0.00088754686
0.00062054954 0.0009152381 0.0003766438 0.00052691577 0.00033625966 0.00028780338 0.00090990134 0.00062345096
0.00038232896 0.00024334119 0.00034597085 0.00047550027 0.00023285342 0.00031575255 0.00041940235 0.0004395321
0.000927135 0.0009213048 0.00028741453 0.00048774353 0.0009651216 0.0009111538 0.0008809527 0.0004583859
0.0005617608 0.00033506926 0.00040209503 0.0006468076 0.00088166806 0.00052755926 0.00084165577 0.0003883738
0.00015081909 0.00021476041 9.2608134e-05 0.0001224632 8.280585e-05 6.824191e-05 0.00022168287 0.00015245035
8.702055e-05 5.6435085e-05 8.774016e-05 0.00011820083 5.351391e-05 6.649227e-05 9.639094e-05 9.501247e-05
0.00022449165 0.00022090775 7.019694e-05 0.0001027864 0.00022404845 0.00022599075 0.00022058422 0.0001030635
0.00013891772 7.9012505e-05 9.5594805e-05 0.0001371786 0.00021090484 0.00011450251 0.0001942357 9.573605e-05

exp_avg f4 [32]
00000000: ba88 573b 4905 ad3b ec06 8ebb d1e7 25bc
00000010: 6550 373b cb10 7abc d881 ffbb bef0 3abb
00000020: e720 a4ba 71fe 28bc f90b 66bb 4a71 36bb
00000030: 7a9c e23b f89e 863b 343e 273c 2e62 52b9
00000040: 378d d5ba 26e0 2bbc 8e6f 9d3b 02ea 183c
00000050: 3cd4 833c bd2a dabb f731 feba 3981 de3a
00000060: 0ea3 b23b 5de0 953a 34f2 003c 7fc4 c2bb
00000070: 1b42 da38 7d80 deb9 8979 85ba 0551 773a
0.0032887892 0.005280171 -0.0043343212 -0.01012607 0.0027971503 -0.015262793 -0.007797461 -0.0028524841
-0.0012522013 -0.01031457 -0.003510235 -0.0027838522 0.006915626 0.004108306 0.0102077015 -0.00020063735
-0.0016292696 -0.010490453 0.004804558 0.009333136 0.016092412 -0.006657927 -0.0019393553 0.0016975767
0.0054515665 0.0011434663 0.007870246 -0.0059438343 0.00010407363 -0.0004243887 -0.0010183315 0.0009434375

exp_avg_sq f4 [32]
00000000: 80eb 173a 97b5 f538 2724 9739 fe71 863a
00000010: 91c4 893a 9182 343b 7929 9c3a b7f6 9739
00000020: 268c 463b f83f 053a a9e5 ee39 a5a3 1239
00000030: 8617 463a 16ea 8c39 7a65 953a 34c6 0639
00000040: 2299 1039 d74f 353a 35f9 4b3a 8d42 c73a
00000050: 10b5 933b a6aa ff39 cd26 2e39 2ee5 3139
00000060: 1ba7 523a fa89 4339 a683 113a 362b de3a
00000070: c70a e73a 6437 333a 8530 f637 46de f938
0.0005795285 0.00011716334 0.000288279 0.0010257361 0.0010510852 0.0027543644 0.0011914215 0.0002898478
0.0030295937 0.00050830794 0.00045566008 0.00013984607 0.0007556606 0.00026877288 0.001139804 0.00012853072
0.00013789957 0.0006916499 0.000778097 0.0015202329 0.0045076683 0.00048764533 0.00016608388 0.00016965411
0.0008035765 0.0001864805 0.0005550928 0.0016950134 0.0017627113 0.0006836562 2.9348079e-05 0.00011914647
